Control_FPL/lightning_logs/feature_comparison/total_points-clean_sheets-saves-assists-goals_conceded/default/version_0/checkpoints/epoch=99-step=1299.ckpt (torch, 3607 bytes, 6 tensors)

model.fc1.weight f8 [1, 30]
00000000: 4fa2 48b1 83a5 b23f 858f c4f2 faa6 a73f
00000010: 702c 8c5b 8ac8 b03f a09d e99a 4df0 b43f
00000020: bbd7 9720 c2a1 b33f 7bef a51d a0ac c43f
00000030: 9102 41d0 954a 6cbf 18db eca2 243e 26bf
00000040: 3a03 e5cb cf13 82bf 0b59 43f2 1291 793f
00000050: 2a11 dab3 5fe5 a63f 4aa6 d614 729f b13f
00000060: c338 4869 fc93 70bf 7e66 4b95 2351 913f
00000070: b881 1c1c 4647 973f 952c 899d c893 8dbf
00000080: 02c6 57b5 f040 763f 87a5 4cfd 9583 18bf
00000090: f689 d2e3 4050 20bf e502 e08e 80e6 923f
000000a0: ccc6 0fc4 f249 5f3f 86bd ffc8 003c 70bf
000000b0: e572 3fd9 ac9a 50bf 5eeb 4d0f d795 93bf
000000c0: e496 7ece 0f10 813f 742e deda ea6a 7f3f
000000d0: 9d41 3d24 7930 6d3f 4d46 317a fa8e 923f
000000e0: 38c8 9bc2 dc46 af3f a7f0 a3f9 25ba bc3f
0.07283804968086226 0.04619583333467773 0.06556000456855471 0.08179173500103909 0.07668698592882965 0.16151811072984032 -0.0034535337490811465 -0.0001696986887169342
-0.008826850328320302 0.006241868981496044 0.0447187335057911 0.06883919724227741 -0.00404738042972336 0.016911083209242943 0.022732825723439126 -0.0144420312000391
0.005433025614807631 -9.351351702648588e-05 -0.00012446205247325343 0.018457421036148686 0.0019097204933555155 -0.003963473383904575 -0.0010134399390075374 -0.019126282033066537
0.008331416596614578 0.007670323755415976 0.00356315288983229 0.018123544414555593 0.06108751178352673 0.11221539826141456

model.fc1.bias f8 [1]
00000000: 5aa7 9540 1d92 72bf
-0.004533876673443371

exp_avg f8 [1, 30]
00000000: baab dcdd 5bd2 7c3f 6d32 f3d4 43e4 853f
00000010: a9c1 5813 096c 67bf fd87 8a4e 139f 79bf
00000020: f2ab 22b2 be5b 4cbf 55d1 400a 94d4 6c3f
00000030: e170 9054 be83 853f 15ed e39c ae24 61bf
00000040: a681 3efa e399 82bf b9c5 a03e 8278 5f3f
00000050: a373 6094 7831 75bf 97bc 84fc 9d73 7f3f
00000060: 007a 1816 28a4 773f 6afb 4cbc 6454 7f3f
00000070: 3d8b 57ae a498 583f 2ed0 7918 de37 783f
00000080: b222 a552 54be 783f 6f58 b726 c692 743f
00000090: 9d04 b8a5 e6fc 563f e7a6 7b56 238f 903f
000000a0: cf0e cbc0 f771 7a3f cc65 048e 3f48 6dbf
000000b0: 48ce c31f 3c5f 7bbf 63da 3206 fe46 513f
000000c0: b8a2 0042 9581 66bf 6876 864b 6857 733f
000000d0: 91a2 9a3b 2e6e 853f 986b 2496 c671 783f
000000e0: e34a f08b 1fad 773f 92c8 2e38 c5c0 76bf
0.007036551336379421 0.010689287124841596 -0.0028591325051580863 -0.00625522176474824 -0.0008654290325201804 0.0035193339736229548 0.010505186992354644 -0.002092686691978716
-0.009082585405679588 0.0019208213730162861 -0.00517413236050582 0.0076786204665914215 0.00577178629603603 0.007648843286743959 0.0015012367451780605 0.005912654458018847
0.006040887247146175 0.0050227871210691685 0.0014030697265073118 0.0161710282836002 0.006456344399967852 -0.0035744897178459963 -0.006682619914716144 0.0010545235352716002
-0.0027473368827667065 0.0047220300697553355 0.010464059061022797 0.00596787999009054 0.005780337552112799 -0.005554933918505383

exp_avg_sq f8 [1, 30]
00000000: f036 62ef 9c0b 903f 1a63 25e1 b157 793f
00000010: dc90 dbc9 fa6b 7f3f ceff 122e 738a 7b3f
00000020: 020b 2dd3 ab81 713f 7aab ffbd 6b7d 703f
00000030: d42d 9e48 7ca9 893f 2835 6286 a30f 793f
00000040: 7881 2a49 20a7 6e3f 2c9b 0b13 6d98 763f
00000050: 04da 4c25 ba4c 6a3f 408a e5b6 6db0 603f
00000060: 622b e152 ff4b 753f 458b e12d 08c1 6f3f
00000070: d821 a110 593d 773f a123 a87f 03ed 773f
00000080: d62c 13ae a25b 763f e5c9 db80 5be3 663f
00000090: f108 7c2e c7ba 623f 055f 8088 fee7 613f
000000a0: 87b2 4476 2e34 633f 8639 288f 37fd 5c3f
000000b0: ea0c dee4 e201 603f a3df 4465 7f4f 5e3f
000000c0: be7f ae04 8b9e 533f 8638 c253 a43a 5c3f
000000d0: b288 3bab ab26 5f3f a6ba 648e 017b 5e3f
000000e0: 5738 8e58 2cee 533f e394 d55f c3c3 713f
0.015669300185030488 0.006187147943216309 0.007671336786845919 0.006723833009516468 0.0042740547094719545 0.004025860660457842 0.012530299154397996 0.006118429917603842
0.003741801317417689 0.005516458579882404 0.0032104144724158807 0.0020372526989132222 0.005199429853813027 0.0038762244940228363 0.005673740301127293 0.005841268221510016
0.00545848414294455 0.002793959348190033 0.002286328341029813 0.00218581880109159 0.0023442180119189224 0.001769356019056896 0.0019540244601913186 0.0018500084016306116
0.0011974675751176135 0.001722965694202412 0.0019013096288565232 0.001860381622076504 0.0012164528909326588 0.004337084942880073

exp_avg f8 [1]
00000000: 2665 4e80 3346 6fbf
-0.003817654217027527

exp_avg_sq f8 [1]
00000000: d927 e825 269b 493f
0.0007814346570864619
