Control_FPL/lightning_logs/model_comparison/linear/default/version_39/checkpoints/epoch=0-step=13.ckpt (torch, 4179 bytes, 6 tensors)

model.fc1.weight f8 [1, 42]
-0.006394747609170095 0.024675188165065205 0.11566365267887448 -0.10219796238879422 -0.1313553121668331 0.02909486118120169 -0.022375136601315404 0.028120570054586853
0.003988196626869536 -0.13509613567450332 -0.13380360371724195 -0.02733238557848312 -0.07690928592927825 -0.08120167532758067 -0.031199511346831084 -0.07327283858057912
-0.140364947034993 -0.09701121988712506 0.04434007734592811 0.03407031540530171 -0.11159593153697352 -0.11072673084960082 -0.025976767913864447 -0.13242246987246084
-0.08015484696303656 0.10106102152797444 0.04001880176676503 -0.0876348371075713 -0.10774683431440912 0.1114286468851229 -0.13450330547619083 0.08276918410878813
-0.06408330244554966 0.005284632356679667 0.13037087965270758 0.07334577734597693 0.10110664023166191 0.0848267535122476 -0.003509345684198328 -0.051572842203926494
-0.07333403826974756 -0.05590279377371484
00000000: cf9a 8ffd 6031 7abf 2233 c4d8 7344 993f
00000010: 9977 9715 229c bd3f 5a7e 2d4a a529 babf
00000020: 26ca f438 40d0 c0bf 0f0a 0515 0bcb 9d3f
00000030: 00e4 c8ff 81e9 96bf d2d4 ea82 a3cb 9c3f
00000040: e999 5161 ed55 703f 39dc 4486 d44a c1bf
00000050: 43b8 06fb 7920 c1bf d398 b958 05fd 9bbf
00000060: c730 d3b3 53b0 b3bf 0591 e90b a2c9 b4bf
00000070: 8214 8bc3 c3f2 9fbf 2a80 633d 02c2 b2bf
00000080: 8f91 8284 7af7 c1bf dba0 c230 bad5 b8bf
00000090: 9aab 341c beb3 a63f 0240 dc14 aa71 a13f
000000a0: 9565 510c 8d91 bcbf 77c2 ca47 9658 bcbf
000000b0: 7254 9562 a799 9abf 3bcb ad30 38f3 c0bf
000000c0: e976 522e 0785 b4bf b6ed 5c96 22df b93f
000000d0: 1871 a029 587d a43f c407 5e97 3c6f b6bf
000000e0: 38bf a0e9 4b95 bbbf e189 357a 9686 bc3f
000000f0: 88b0 1c81 6737 c1bf 2325 dd7a 5c30 b53f
00000100: 042b 3968 c367 b0bf 9d0c 4bb2 56a5 753f
00000110: cdc4 3a34 feaf c03f d12b 00f3 c9c6 b23f
00000120: b613 34f1 1fe2 b93f 7334 29c4 34b7 b53f
00000130: b22b 359e a1bf 6cbf 1859 416d c167 aabf
00000140: 8d5b 0d00 05c6 b2bf fbb9 067e 4a9f acbf

model.fc1.bias f8 [1]
0.06237827787638632
00000000: 5675 ebae 0bf0 af3f

exp_avg f8 [1, 42]
-0.87451279765411 -0.7364238361336349 -0.7818965941780741 -1.2729122546079652 -1.3758588097405684 -1.04079779627682 -0.8397001012985607 -0.7449848853306473
-0.834086106448446 -1.2209320019885976 -1.2926935618859179 -1.0621479765856032 -0.6357464374453033 -0.5650685833135458 -0.5029096641809075 -0.7846368869370285
-0.9005968705997305 -0.7459131754442362 -0.5161793854373423 -0.5492209025789795 -0.6247199424872194 -0.6417074685439164 -0.6400450499452758 -0.6551472905106617
-0.4312829561294363 -0.17139177174354453 -0.2182109533114537 -0.5808126766030676 -0.6292532449045611 -0.18655102172997434 -0.37801376918177315 0.2637157450002398
-0.19542716519969736 -0.0632733440178384 0.10485387228292445 -0.034922264892474485 -0.30129844413857443 -0.2458637652603212 -0.3221903509064426 -0.6814593067035645
-0.7142384712205596 -0.49737155128480404
00000000: a873 3b43 02fc ebbf db0a 86b8 c890 e7bf
00000010: d527 9b01 4c05 e9bf 5a80 833d d95d f4bf
00000020: d6fc fb86 8403 f6bf 0020 0c97 1ba7 f0bf
00000030: 7bce 30bf d2de eabf 564d d08a ead6 e7bf
00000040: 43cf a758 d5b0 eabf b2e4 b2fe ef88 f3bf
00000050: dbcb c071 dfae f4bf f129 6fe0 8efe f0bf
00000060: e908 ace9 0858 e4bf f684 aab5 0a15 e2bf
00000070: 99fa 0f02 d617 e0bf 3727 14d1 be1b e9bf
00000080: 9a62 4387 b0d1 ecbf 3b08 c64e 85de e7bf
00000090: 1554 6aa1 8a84 e0bf f766 dbb6 3793 e1bf
000000a0: 0e88 44ad b4fd e3bf 9cd7 df19 de88 e4bf
000000b0: a569 afc1 3f7b e4bf 3ccd 5973 f7f6 e4bf
000000c0: fd7a f9d3 239a dbbf 2294 3863 2af0 c5bf
000000d0: bd03 0d26 56ee cbbf c798 6377 0496 e2bf
000000e0: 028b 78b3 d722 e4bf cecc ae64 e7e0 c7bf
000000f0: b9b2 04aa 6031 d8bf f3d7 0d01 b8e0 d03f
00000100: 2b2f a4e1 c103 c9bf 64e2 438f ae32 b0bf
00000110: 426a 5010 b4d7 ba3f 3b19 3bc3 54e1 a1bf
00000120: 884b fa44 7948 d3bf 8d41 88bf 7678 cfbf
00000130: 41b7 0e47 c49e d4bf b317 7bbf 83ce e5bf
00000140: b2fe 6da3 0adb e6bf 44a8 ae7c efd4 dfbf

exp_avg_sq f8 [1, 42]
0.018991259616519002 0.013423951376990687 0.015489212404507841 0.0393227292148399 0.04542304222516193 0.026967105612590032 0.017271376648006195 0.013633569624664395
0.01741734161210264 0.035801754593658724 0.040807067715336556 0.027781516102129474 0.009601532996609319 0.007817219567541243 0.006690755266597225 0.015113504765759315
0.019648903243556743 0.013698212933583894 0.007263074225055014 0.007452377905945507 0.010320078690986953 0.010445532529240529 0.010306331686760114 0.010969709391808847
0.004490024840331003 0.0008313686142348509 0.001274054231677687 0.008198238562449821 0.009056466016592242 0.0010405569930075295 0.003366152423754156 0.001720968306785723
0.001012148336582475 0.0001380731986496282 0.0002852410243428247 6.56210968692955e-05 0.0024261647046207218 0.0015920886946387508 0.002693148276963482 0.010950016760215828
0.012352175887432584 0.00624933358018938
00000000: d5e6 d9db 7172 933f 759b 2d41 047e 8b3f
00000010: fdc9 bee5 ceb8 8f3f fc34 efd7 1b22 a43f
00000020: 320d af61 b041 a73f 5206 b2d2 439d 9b3f
00000030: 0cba 7077 96af 913f 244c 53bd eaeb 8b3f
00000040: 85d0 6d02 dad5 913f 6c05 3d8a 9b54 a23f
00000050: 0ae9 90fa a9e4 a43f 6f26 5efc c172 9c3f
00000060: a0f9 b1f1 f7a9 833f 0c1e 1b73 7902 803f
00000070: 72a2 e3f0 c367 7b3f ef33 9345 d4f3 8e3f
00000080: 4558 5593 d71e 943f 11d1 8104 cf0d 8c3f
00000090: 0492 3da4 e2bf 7d3f 4db0 2276 6286 7e3f
000000a0: 856d c283 b122 853f 05b3 d1a4 7764 853f
000000b0: cb78 4a6c 7c1b 853f 7af0 ac78 4977 863f
000000c0: fa26 8fdd 2164 723f cddc 2881 063e 4b3f
000000d0: bd65 8950 c5df 543f b98f 15f4 3cca 803f
000000e0: 3169 de4a 328c 823f e539 4b90 690c 513f
000000f0: 0517 5952 5593 6b3f 7612 16a6 4332 5c3f
00000100: 02d2 4600 4295 503f 2d8a ccbe f718 223f
00000110: fbd1 fbde 8cb1 323f f50c 24dc c133 113f
00000120: aa2a f441 09e0 633f 6e2f 0d38 b415 5a3f
00000130: 7614 bbf8 f00f 663f 5898 015f f66c 863f
00000140: 1b88 c4fb 184c 893f d24e 94b5 e698 793f

exp_avg f8 [1]
0.12628948696878434
00000000: a205 2e00 412a c03f

exp_avg_sq f8 [1]
0.0004231329732250168
00000000: b105 2848 feba 3b3f
