Control_FPL/lightning_logs/version_10/checkpoints/epoch=0-step=48.ckpt (torch, 3159 bytes, 6 tensors)

model.fc1.weight f8 [1, 20]
0.016601364258665225 0.06067375481392283 0.1923683597256869 -0.12193920674853027 -0.16432492677910393 0.06719699071256624 -0.008230448256575658 0.06649200160612216
0.03040193924365264 -0.17091288263374455 -0.1686193469714986 -0.013806590885493044 -0.08734489248348515 -0.09340406711626123 -0.021698192471498394 -0.08041963157349621
-0.17955451736705932 -0.11742396672420201 0.07456556476604782 0.07152392355654762
00000000: a563 3db2 f2ff 903f f679 4d61 a110 af3f
00000010: 684b e7c2 869f c83f 6dca 1569 6837 bfbf
00000020: 4488 3765 9908 c5bf c005 806d d233 b13f
00000030: 244f bf10 20db 80bf 2308 58ac 9e05 b13f
00000040: 9f57 259b af21 9f3f 2a42 b02c 79e0 c5bf
00000050: 4c94 5b9a 5195 c5bf ae5d 9442 a146 8cbf
00000060: bc6f b020 3c5c b6bf 2ee6 9335 54e9 b7bf
00000070: 5e89 300c 0d38 96bf 6285 9087 6196 b4bf
00000080: 0d65 f875 a4fb c6bf 9bd7 d840 7f0f bebf
00000090: 39f4 1396 ba16 b33f fb95 8e50 644f b23f

model.fc1.bias f8 [1]
-0.1371170772342368
00000000: 03da 3869 0d8d c1bf

exp_avg f8 [1, 20]
-1.0088763845612023 -0.8712972650686742 -0.631092921581732 -0.9766629723009074 -1.0350795576025518 -0.7661139695265035 -0.7048407430491928 -0.8960178326769098
-0.4708536331121432 -0.7310030005056435 -0.6232705038821931 -0.6444979714194412 -0.7797599300847768 -0.7462191268128292 -0.6305061386860022 -0.7578299429765721
-0.6884010002504378 -0.4574022751720438 -0.031176874590119707 -0.24316480724997327
00000000: 745a 5690 5b24 f0bf eb0d 52cd aae1 ebbf
00000010: bcc7 5dc8 e931 e4bf bfe3 a7b4 d240 efbf
00000020: e693 0a95 af8f f0bf 9900 8471 0184 e8bf
00000030: a01b 892c 0e8e e6bf 355d ff96 2dac ecbf
00000040: 11d8 da46 7722 debf 3563 8e67 6064 e7bf
00000050: e488 d7fb d4f1 e3bf 08b7 b235 ba9f e4bf
00000060: 6a40 ce18 cbf3 e8bf e5f1 29ef 06e1 e7bf
00000070: 04ad b235 1b2d e4bf 0d72 a094 2440 e8bf
00000080: 897f d388 6107 e6bf 06b7 3e31 1446 ddbf
00000090: f333 06a3 d4ec 9fbf b1a0 563f 0620 cfbf

exp_avg_sq f8 [1, 20]
0.0674140199920718 0.06061745441498715 0.03516326882851574 0.06596085216306852 0.06764612644541296 0.04542270027641142 0.037832618507122405 0.054604174027065654
0.01748245160062196 0.03753110754659832 0.03034731911380863 0.030450666722718928 0.03881819510480767 0.03470431602968684 0.030411424340729725 0.03475810641533385
0.03163711036338179 0.016475418269994182 0.0016645998798865997 0.005358071889013016
00000000: 1c68 2893 0b42 b13f 85eb 8e40 4009 af3f
00000010: 0222 4783 eb00 a23f bc4e db76 cfe2 b03f
00000020: b4bc c8ac 4151 b13f 06cc 5de8 a441 a73f
00000030: d396 6b06 cc5e a33f d3b9 570b 14f5 ab3f
00000040: f3a8 8377 ebe6 913f c797 fdfe 4637 a33f
00000050: 85d8 751c 5e13 9f3f 08a5 dca6 752e 9f3f
00000060: e106 ee7c fadf a33f b34e c19c c3c4 a13f
00000070: 1b73 df23 2c24 9f3f 3245 a684 d0cb a13f
00000080: b08a b344 bd32 a03f b753 a19a eede 903f
00000090: 0de9 e182 d645 5b3f 59df 8678 58f2 753f

exp_avg f8 [1]
-0.27256187446578206
00000000: 30e3 3d5c a771 d1bf

exp_avg_sq f8 [1]
0.005443997232719015
00000000: 5e47 2fe1 714c 763f
