Control_FPL/results/models/11_2021.ckpt (torch, 3223 bytes, 6 tensors)

model.fc1.weight f8 [1, 24]
000000 62 06 e1 7c 05 7a 8a bf c6 33 49 48 68 e1 9c 3f
       -0.01292804992056346 0.028203610813125633
000010 fc 9a f8 84 10 08 c3 3f 0d dc 07 61 60 e1 c1 bf
       0.14868360989313334 -0.13969044435336322
000020 76 45 1b 7b d6 d0 c6 bf 8e b3 ef af 3c 69 a1 3f
       -0.17824822436390847 0.0340060200468094
000030 66 95 93 34 dd 75 a1 bf 38 4e 52 49 f5 c0 a0 3f
       -0.03410235659411391 0.032722153854731706
000040 66 fb dd d9 09 fd 47 3f 69 7b 1f a4 0e 74 c7 bf
       0.0007320688343809111 -0.18322928441827038
000050 f6 3d b4 31 79 37 c7 bf 42 df 8a 77 83 d9 a4 bf
       -0.18138041426617207 -0.040721996634089055
000060 ae 69 66 97 a6 34 bb bf ed 23 e1 84 28 a2 bc bf
       -0.10627213665285382 -0.11184933895232492
000070 b4 59 b8 f9 fd 5e a7 bf 35 4d e2 c9 a4 ed b9 bf
       -0.04564660714474958 -0.10128240517433514
000080 b5 f9 81 51 de 5e c8 bf 36 29 84 44 e4 03 c1 bf
       -0.19039515476101845 -0.13293126435775954
000090 81 12 b6 7d 55 d0 ab 3f e5 a1 4d 4e 08 b8 a4 3f
       0.05432383689461507 0.04046655612802733
0000a0 45 3c 34 8c 5a 99 c3 bf 86 a0 95 f5 fd 54 c3 bf
       -0.15311748357678048 -0.15103125087194175
0000b0 c6 d3 94 ad fd f1 b0 bf dd 3b 1a 74 a1 f6 c6 bf
       -0.06619248855424961 -0.17940157097879608

model.fc1.bias f8 [1]
000000 51 3a bf c7 12 5e bc bf
       -0.11081044556269971

exp_avg f8 [1, 24]
000000 b1 bf f7 6b 73 18 f0 bf 42 e4 99 b1 b0 e4 ed bf
       -1.005969449757668 -0.9341662853977442
000010 7e 0e 0d 32 eb b0 e8 bf 35 97 8f 3c 18 18 ef bf
       -0.7715965249594345 -0.9716912443952653
000020 ac 3c fc be 99 4a ef bf cd df 08 55 12 16 eb bf
       -0.9778565149480491 -0.8464442883332538
000030 b6 81 5f 70 92 60 e9 bf df 6e f5 7c 8e 9d ec bf
       -0.793038577536257 -0.8942329826927241
000040 7d c7 65 d6 9a c7 e0 bf 98 4b c5 0c 7f 43 e7 bf
       -0.5243658244564667 -0.7269892930438457
000050 8b 04 c6 14 92 d9 e4 bf ef ab df da aa 95 e4 bf
       -0.6515589147312694 -0.6432699465634623
000060 cb d7 b7 a9 39 aa e5 bf b8 d2 20 56 ad a3 e4 bf
       -0.6770294489676812 -0.6449801141921716
000070 4c f3 f9 6d 34 cc e4 bf 7f 0a 82 fc 6a ac e4 bf
       -0.6499273441291762 -0.6460471088215199
000080 32 2d 95 92 8a ed e3 bf fa bf 85 3c 0a 9d dc bf
       -0.622746740621926 -0.4470849600829748
000090 1a 86 a4 3f c9 39 c6 bf 32 ae 62 9b a7 f5 d0 bf
       -0.17363849265625292 -0.2649935738979564
0000a0 0f 52 43 c9 6a e9 b2 bf 81 a9 73 15 46 10 bf bf
       -0.07387416280409574 -0.12134206794477188
0000b0 30 a2 23 4c 68 a4 c7 3f 2c ac 37 6a 6b eb d1 bf
       0.18470481603368816 -0.2799938714294423

exp_avg_sq f8 [1, 24]
000000 5e 31 27 dc 38 7f 98 3f 3b c8 96 0a b0 96 95 3f
       0.02392281383235805 0.021082640310574368
000010 ee a9 90 a2 f9 c5 8c 3f 81 1c a2 bd 92 e2 97 3f
       0.014049482606499599 0.023325245689673316
000020 35 f8 5a 71 a9 c1 97 3f ac 64 cc 0b 68 b6 91 3f
       0.02319969896665715 0.017297387809865825
000030 15 10 7a e4 6e 98 8e 3f 21 04 3d a4 60 91 94 3f
       0.014939180705603442 0.020085821174920086
000040 6b 9e 5e c5 fd e0 7b 3f 91 fc 5f 50 b5 46 8a 3f
       0.006806365292426268 0.012830177798603766
000050 2e f0 33 21 49 01 84 3f 54 55 d9 08 31 1d 85 3f
       0.009768077207347483 0.010309584696339393
000060 26 42 fb 34 6b e8 85 3f 7d e6 b5 48 cb 28 84 3f
       0.010697209886900327 0.009843433529329143
000070 47 8b 92 8e 03 54 83 3f 4b 9d fb 90 c2 c2 84 3f
       0.009437587536302096 0.010137100266958262
000080 1c b2 01 12 ab 2b 83 3f c6 7a 7d da 17 29 75 3f
       0.009360634314554743 0.005166142633099729
000090 23 f3 83 af bd 34 4a 3f f4 e7 fc fb cb 30 60 3f
       0.0007997442435506468 0.001976393134012428
0000a0 48 88 5a be c1 0c 32 3f af ae 81 46 84 73 3c 3f
       0.00027541856830215873 0.00043413142566948564
0000b0 87 e7 4e f0 85 ae 4b 3f 6c d6 e5 f6 51 5b 5e 3f
       0.0008447793958261542 0.0018528271135357611

exp_avg f8 [1]
000000 c0 5b f8 de c6 35 c6 bf
       -0.17351613890852313

exp_avg_sq f8 [1]
000000 97 2b e1 10 93 94 47 3f
       0.0007196157546415113
