Control_FPL/results/models/8_2021.ckpt (torch, 3223 bytes, 6 tensors)

model.fc1.weight f8 [1, 24]
0.06838840079452835 0.07480582238952362 0.06457464490525754 0.052582172917286035 0.03323599171767353 0.04633397045342778 0.08249381807374018 0.1728029752421446
-0.0013529322164503657 0.01474959328020845 0.023677685989191857 0.05154989495961148 0.051865494156938696 0.005542420927809873 0.008729445693712383 0.029213921423242837
-0.01170871047536868 -0.010715056397086078 -0.021364010469470344 -0.03173230718303461 0.007420102314765769 0.023085977827909308 -0.01047452643020062 -0.020079753099193392
00000000: e096 d6f8 e681 b13f a1a0 b670 7926 b33f
00000010: 3fd6 04c4 f687 b03f 8c91 10f2 0cec aa3f
00000020: 6d7f f4d2 4e04 a13f 9d25 950f 16b9 a73f
00000030: 1cb7 bf9a 501e b53f 5c83 a86b 681e c63f
00000040: a01d e5e7 9b2a 56bf 9372 24e6 0835 8e3f
00000050: 04c8 df9b f63e 983f cf72 ed71 bf64 aa3f
00000060: f8cd 6332 1d8e aa3f fc7e 024a a6b3 763f
00000070: 0935 225e bee0 813f d928 6714 41ea 9d3f
00000080: b571 8f84 bcfa 87bf 5bf9 6686 c6f1 85bf
00000090: 8171 1c79 72e0 95bf 19d0 278b 373f a0bf
000000a0: 12f6 658c 8a64 7e3f f975 11bf d9a3 973f
000000b0: f69e ab23 ab73 85bf bbbc 7d6b c98f 94bf

model.fc1.bias f8 [1]
-0.003086879130428033
00000000: e63a 2e9d a749 69bf

exp_avg f8 [1, 24]
0.0022659879592040982 0.01048612458562186 0.0020368454480008996 -0.014347389429015079 -0.016565308610507073 0.010063221408374002 -0.021815272884969362 0.010270253745611673
0.0026820625471779477 -0.00725415046177746 0.0001995695985439313 -0.00567326860615918 -0.00839654632759477 -0.006448165027632944 0.003181744339370165 -0.006652623781208504
-0.0015992821828799035 -0.0057922646336402255 -0.017560871212505304 -0.005281722425127078 0.003704601606821311 0.014467623706535865 -0.007624051134223634 0.0044975141202462845
00000000: 3773 b105 1f90 623f 9a97 41d1 bf79 853f
00000010: 49e8 c112 93af 603f da75 0b03 2a62 8dbf
00000020: 3bcd eb0a 7ff6 90bf fa21 bbb6 069c 843f
00000030: 6d85 602e be56 96bf 9614 ac1f 9208 853f
00000040: f06d a15d b1f8 653f 7bc6 e52f 87b6 7dbf
00000050: b69d 4ccc 7128 2a3f 377f ff71 da3c 77bf
00000060: 75cd 025f 3532 81bf 3137 9b1e 6469 7abf
00000070: 52ef 37fc 9910 6a3f b886 2a19 c83f 7bbf
00000080: d4f8 0a2b e033 5abf 6c7d bd32 a1b9 77bf
00000090: 0a1b 301e 7afb 91bf b3cc 5191 49a2 75bf
000000a0: 3249 dfd7 1c59 6e3f bdfd 5c95 33a1 8d3f
000000b0: 2a67 8da4 653a 7fbf b6c2 f440 fc6b 723f

exp_avg_sq f8 [1, 24]
0.02936281741460939 0.024913820235982768 0.015441424776949401 0.030995991001152277 0.031835732094529334 0.01966133243982102 0.01576018164841156 0.02752417530399148
0.008783868158470548 0.018404042106460915 0.015896892859348675 0.015025067724105825 0.021180051942362426 0.017639985732695266 0.015010773178981782 0.01854354552931721
0.018281236662543037 0.009604420284989508 0.004308620325225081 0.005031449397058938 0.003705973616700007 0.003062178940123702 0.003193188976265464 0.0036597590569453836
00000000: b181 0e52 4911 9e3f e122 872c 0283 993f
00000010: 6f79 5df3 c09f 8f3f 29d4 a0be 69bd 9f3f
00000020: a864 61e8 c54c a03f 599c 4caf 1922 943f
00000030: 6829 09e3 6f23 903f 0fbc 1e23 4c2f 9c3f
00000040: c3b7 c8d3 46fd 813f 1388 d85b 82d8 923f
00000050: d973 c16b 4647 903f bb35 f673 76c5 8e3f
00000060: cb1b ae39 39b0 953f d19a 4b67 3710 923f
00000070: b296 21df f7bd 8e3f 34b6 6646 14fd 923f
00000080: 2b5d 6206 51b8 923f 3126 2b78 7bab 833f
00000090: 9f1c 3476 eaa5 713f 2420 ca69 db9b 743f
000000a0: 155e 796f fd5b 6e3f c5e5 dfcc da15 693f
000000b0: 70e1 2247 9a28 6a3f 0e0a bf2e 12fb 6d3f

exp_avg f8 [1]
0.0024359501027100845
00000000: 8494 d3c0 8ef4 633f

exp_avg_sq f8 [1]
0.0034235609888355646
00000000: 0800 744f ba0b 6c3f
