Control_FPL/results/models/<coroutine object get_latest_game_week at 0x7efd484d43c0>.ckpt (torch, 4179 bytes, 6 tensors)

model.fc1.weight f8 [1, 42]
0.052476116097870576 0.04671162585103526 0.10592490879010712 0.03117495877683758 0.02919696948857093 0.15486167555411162 0.03368161525770657 0.055315587287180605
0.04381879910732515 0.012544240175316594 0.04689211804687964 0.16417769383131733 0.012141483791088856 -0.014091908554227149 -0.028337713341001786 0.026401293239957584
0.03229761545775818 0.015817114229465582 0.004375213549369356 0.01798621010093429 0.017254910736852466 0.002820522454979492 0.03324209870818296 -0.007992275955547152
-0.01921793484834547 -0.006365289505250153 -0.03194692128130685 0.004880448737849077 0.0009904533047000094 -0.05572343598098119 -0.003953927058041897 -0.01092393755624284
-0.011420551634249492 0.010914606410323 -0.012678661716945363 -0.021574664491831916 -0.002484080132436062 -0.03196114895806522 -0.048055562598572236 0.020043777744378106
0.010838534920072673 -0.08742452113440097
00000000: 9a43 ec44 26de aa3f 0e12 bf12 96ea a73f
00000010: c3d5 1513 e51d bb3f 1348 9a11 54ec 9f3f
00000020: f204 6274 cfe5 9d3f 5e4f f4e3 81d2 c33f
00000030: 7740 0478 b73e a13f d706 b71c 5352 ac3f
00000040: 855e 3bea 6a6f a63f e900 736a cbb0 893f
00000050: 8f2d e762 3e02 a83f a17d de50 c603 c53f
00000060: 580c 765e a2dd 883f 3f6e 07f3 37dc 8cbf
00000070: e50e 2cc0 8f04 9dbf 0ba1 26cc f008 9b3f
00000080: 6a7c 4224 5089 a03f 71a2 5491 5c32 903f
00000090: 2d8e b871 beeb 713f c865 a620 fa6a 923f
000000a0: fc9f 3d75 45ab 913f 83e7 7476 101b 673f
000000b0: 41a6 9abd 1b05 a13f 2a26 cc1e 415e 80bf
000000c0: c863 aec6 ddad 93bf ebed 1264 7d12 7abf
000000d0: 03e2 38cc 585b a0bf e979 807b 85fd 733f
000000e0: 5b5b 5223 433a 503f d270 513e c887 acbf
000000f0: 9c1f 7b36 fe31 70bf e980 6114 4a5f 86bf
00000100: c3c9 2b7e a863 87bf 25fd a5ac 655a 863f
00000110: db5b 732b 45f7 89bf 6c8a a839 ab17 96bf
00000120: 011b be5d 7e59 64bf 6ef2 0833 365d a0bf
00000130: 2fe5 801b bd9a a8bf 9201 9a27 5b86 943f
00000140: b368 2588 8332 863f c405 2413 7461 b6bf

model.fc1.bias f8 [1]
-0.0031774548917726667
00000000: e29b 071b 9b07 6abf

exp_avg f8 [1, 42]
-0.0015622946900371436 0.001729555595174294 0.017511004949141127 -0.00816800147280319 -0.007105935781472323 -0.008778840114704957 -0.0045005220183825185 0.011719450186353049
0.00793331789476728 -0.015623016916326917 -0.0196872470219354 -0.03890834570297436 0.000650435548899661 0.0012183685326040289 0.003422733425936995 0.005919468391667531
0.002071341553953196 0.007764216103750605 0.004190236922517714 0.0001475365653621267 -0.010865960490402896 -0.006322933276500846 0.00501179548286389 -0.00133763835878639
0.00806482165785292 -0.0009075647762333462 -0.0011145536313012891 0.0020749859900074203 0.005990958938020435 0.008765816118423794 0.001232497864210054 0.004874904509283987
-0.004059177663064907 -0.008294510569107988 0.0009147352278688975 0.0022381468353947463 -0.0035505642517677364 0.0006016214094583028 -0.004393981735331243 0.014107109637080086
0.02561754485412031 0.010150382153896775
00000000: bd58 6d26 bd98 59bf 07de f12d 4856 5c3f
00000010: b97e 4ea6 67ee 913f 0e4f 9899 62ba 80bf
00000020: 6e55 9f1c 1d1b 7dbf 3409 84f9 a3fa 81bf
00000030: 3960 24ae 236f 72bf 574b 38fa 5d00 883f
00000040: ce1e 41e7 573f 803f 6e8a c3d5 f5fe 8fbf
00000050: cb10 6ec8 e428 94bf b9e5 ab70 cbeb a3bf
00000060: 4c28 91b4 3f50 453f c5ed 2040 35f6 533f
00000070: c90c 1304 fe09 6c3f 5241 6e32 033f 783f
00000080: 4659 7507 ebf7 603f 3b3b eae3 5ecd 7f3f
00000090: df1c b728 c829 713f b18c 4672 8156 233f
000000a0: 8238 9187 e440 86bf b8a1 327a 13e6 79bf
000000b0: f31a 179b 3f87 743f 79ab 4f40 76ea 55bf
000000c0: f5fd 250a 4a84 803f afd8 3684 34bd 4dbf
000000d0: ad53 59d9 c642 52bf d688 ef9e 8fff 603f
000000e0: c61c 5ecb f989 783f d839 69ec cff3 813f
000000f0: 531d 3a81 7831 543f 1d16 0437 b5f7 733f
00000100: c2f9 fb34 5ba0 70bf b08f 0b5d b6fc 80bf
00000110: 4368 b0f1 5af9 4d3f 78f8 c5ee bb55 623f
00000120: 5d80 ffaa 1216 6dbf 33f4 9b23 c4b6 433f
00000130: 8db6 a37d 6cff 71bf 4e3e 4234 30e4 8c3f
00000140: cdb6 6855 7c3b 9a3f d3a2 243b b9c9 843f

exp_avg_sq f8 [1, 42]
0.022303993144242966 0.013608417004193962 0.01722788107184322 0.06721145721351268 0.08660146742338506 0.04094346012006776 0.019815704655449306 0.01441635683896438
0.019385485073898742 0.0579271958344855 0.0747130692413904 0.047222851166789266 0.014695281504171438 0.010653066700650351 0.008494484259633908 0.025702905831099136
0.041097067556695475 0.02457082239485619 0.009297125599649712 0.011348154636380014 0.016096440432179768 0.017116617157331513 0.01586152203716398 0.018284342801461573
0.006926992329251002 0.002496406405874009 0.003354511006522869 0.013810253200521044 0.018663405953341466 0.004255105506930169 0.006411163997021572 0.004594251145683316
0.0015240391236427502 0.0007041632210818706 0.0012227823785562197 0.0006890013249645846 0.0051944494332723384 0.0034269039062725637 0.004514108168163651 0.020681115486671627
0.023201057431877004 0.009725767760795074
00000000: aeb9 7fa4 dbd6 963f 20e3 ddcf bade 8b3f
00000010: 16bc 2187 2fa4 913f bc06 a622 c534 b13f
00000020: f279 5e86 832b b63f 7ecb 668c 8af6 a43f
00000030: 53f7 c46d 914a 943f 0be0 34a9 5286 8d3f
00000040: ac51 a3e1 c9d9 933f d5f2 5027 a2a8 ad3f
00000050: febd f94c 6520 b33f 913d c5f2 972d a83f
00000060: 8439 ba4b 8f18 8e3f fbb4 a668 46d1 853f
00000070: e86b bb60 8e65 813f 41b3 d3cf dc51 9a3f
00000080: 3b2a 3cc2 ac0a a53f 3ea7 7cfa 1729 993f
00000090: 92ab 2d13 5f0a 833f e6ff 4388 b33d 873f
000000a0: 0cf1 f3d4 957b 903f 69b4 a2bb 0487 913f
000000b0: 2759 a8b9 003e 903f 30cc 7179 21b9 923f
000000c0: 196d 3858 7a5f 7c3f 0337 ddfb 5773 643f
000000d0: 3e95 2562 eb7a 6b3f 6307 c4ce 8c48 8c3f
000000e0: 3b69 cef8 7f1c 933f db88 e42f cd6d 713f
000000f0: 7edd 24bb 9742 7a3f dba1 b9e6 6bd1 723f
00000100: 305e 688c 48f8 583f 9142 b700 f312 473f
00000110: 0094 dd94 b808 543f 4002 2d14 c393 463f
00000120: 3070 fc66 c646 753f 3bf7 8606 bd12 6c3f
00000130: eef3 3eaf 627d 723f 22e5 a32a 6e2d 953f
00000140: b030 9c9b 04c2 973f 5758 b073 1aeb 833f

exp_avg f8 [1]
0.003794091678275288
00000000: 2c94 a375 c914 6f3f

exp_avg_sq f8 [1]
0.0013488808421946246
00000000: a68b 9ec6 9d19 563f
