Control_FPL/results/models/<coroutine object get_latest_game_week at 0x7f3c2036dd40>.ckpt (torch, 4179 bytes, 6 tensors)

model.fc1.weight f8 [1, 42]
00000000: 02d3 5cab 2dcd a73f 906c a9cc b7fc a43f
00000010: 5755 890e 9a8e bb3f 7b56 5063 cd8f 9b3f
00000020: eedf 406d 9373 9f3f a823 cd60 abd2 c33f
00000030: 2df9 15d3 4c5a a63f 91dc c17a 994b b03f
00000040: 4ca3 a9fe efaf a23f 5541 97c8 8025 933f
00000050: 7e04 1e10 731b a83f bab6 3e2d cb5a c43f
00000060: 6ed9 4990 0306 853f d102 6c82 bf83 8abf
00000070: f00a 80f6 15e8 99bf c225 2cc5 dade 983f
00000080: e434 8c71 bb27 a33f 58c5 c34b adcf 873f
00000090: 284a fb4f 37c1 813f 7f02 fb12 e795 923f
000000a0: 6f48 ea08 5050 523f 8d95 9323 50f7 603f
000000b0: 1c8e d4a2 dfa8 a53f 2ed1 9016 3426 70bf
000000c0: decd fd09 2536 8fbf 456c 6e3d c4e0 73bf
000000d0: 743b ca13 18be 9bbf 372b dfc0 ff56 7c3f
000000e0: 8a28 37d2 e202 683f cde1 fffa f5d0 acbf
000000f0: 229d 2002 c1b8 81bf 98f3 ecb0 8525 92bf
00000100: 4202 e321 1773 8cbf 5813 9d52 5be6 803f
00000110: bcc0 b9c9 8d04 84bf ea05 84bf bb31 93bf
00000120: e7d3 bb29 a3ee 78bf 8ff8 a64f 6c89 a3bf
00000130: febe dd24 ccf4 a6bf e421 9eb8 e85f 883f
00000140: 1867 55a4 fc36 1bbf c4ca b3d4 cf47 b4bf
0.04648726193264531 0.04099058507264275 0.10764468054670338 0.02691574972785425 0.030714324515628215 0.15486662127139295 0.04365768505793919 0.06365355727199275
0.03649854644465353 0.01869775032338457 0.047084422795713884 0.15902080258586243 0.010265376892885949 -0.012946602027569839 -0.0252993995382082 0.024287622723056186
0.0374125076396952 0.011626581072479311 0.008669311645836578 0.01814995816562481 0.0011177808370672856 0.0020710530485412216 0.04230402815508347 -0.003942683667492992
-0.015239991538442629 -0.004853025972717144 -0.027092338760265247 0.006918906246890447 0.002931063661638926 -0.05628174485167712 -0.008653171422408127 -0.01772126095169177
-0.013891392442361487 0.008251870592752716 -0.009774310797382994 -0.018744405330840687 -0.006086957316928632 -0.038157829974339134 -0.04483640623118211 0.011901682027898049
-0.00010381619457202858 -0.07922076170852238

model.fc1.bias f8 [1]
00000000: 7605 5af2 7e27 55bf
-0.0012911548341495139

exp_avg f8 [1, 42]
00000000: b894 bc89 862e 6bbf d3ec 708d 723f 88bf
00000010: 0c30 81fe 6890 883f 0146 b8f2 f0ed 83bf
00000020: 4eda 96b2 b8fa 93bf a9ec fe81 b109 73bf
00000030: 0409 151d 6ae1 86bf 57f4 f115 aa9f 8ebf
00000040: 08e5 2f53 d776 913f 81fa c416 3e94 93bf
00000050: 2657 0f1f 6c7e a3bf 8d60 2621 140f a1bf
00000060: 3ebf e448 45d8 6bbf 7462 bc70 85f6 3dbf
00000070: d50a b6d2 706f 403f 859f 83ec 72b4 573f
00000080: c8f3 6bc5 42cd 613f 2115 328d 3aa8 973f
00000090: c1fa 15c1 37d2 523f 1271 a545 0209 283f
000000a0: f2b5 a0ca cbbf 7ebf a346 9eaf 02a8 463f
000000b0: f9c6 3c61 2318 50bf b14d 5f5e 0ef3 8dbf
000000c0: 6e83 621e fa6a 71bf dfb5 9ac6 da2d 86bf
000000d0: b0e7 ecdf 655e 76bf 4c12 0651 bd73 42bf
000000e0: 3ceb 59ce 3e11 70bf fefe b2ba 9abf 8a3f
000000f0: f325 0766 7239 693f 00f0 ff8c 36ce 7b3f
00000100: 3c22 bb12 0a08 31bf aede 7535 6f09 51bf
00000110: 01c3 ef9e 4048 82bf 472c 8663 1645 643f
00000120: 0f76 8df2 c7a2 62bf fd79 a8d6 8c8a 8dbf
00000130: 1b95 f473 ad3e 70bf 4ae4 fee5 0940 8c3f
00000140: 3c32 12fd c5e5 833f 5c01 242a cbe8 843f
-0.0033180835433933263 -0.011839766446533428 0.011994190470566955 -0.009731180579396261 -0.019511114025329505 -0.004647916211918326 -0.011172131550328597 -0.01495297317000614
0.017054905369126266 -0.01912018789266279 -0.038073900977606365 -0.03331816582357403 -0.003399024316557502 -0.00045719869443553514 0.0005015660184855784 0.001446830969195263
0.002173071300943328 0.023102679126641882 0.0011487526392951893 0.00018337395415358358 -0.007507129726986405 0.0006914151301648696 -0.0009823174959361898 -0.014623749022496609
-0.004252411867270973 -0.010829648195193662 -0.00546111864860592 -0.0005631136319129231 -0.003922696434183245 0.013060768911941075 0.0030791506144154323 0.006788457001672299
-0.00025987859656287685 -0.0010398469947556044 -0.008926873064383669 0.0024743497162425273 -0.002274885675815914 -0.014424419689984974 -0.003966023970211975 0.013794019061480384
0.009715601716629434 0.010209643577127885

exp_avg_sq f8 [1, 42]
00000000: 7646 b606 2894 953f f275 850c 6adc 8c3f
00000010: 05e6 839a b496 913f dadb d21d 4cb0 b03f
00000020: 1db0 74a0 693f b63f a9cb 5867 5974 a53f
00000030: 7702 09b6 f5c7 933f 4cab 3bab cfc0 8f3f
00000040: 5ae1 a81c 5a37 953f b1c4 e5d1 2d4d ae3f
00000050: f154 1d9e e853 b33f 9cb8 2aa8 b792 a73f
00000060: 64ff 351c aa9f 8b3f 0bc3 8849 c127 863f
00000070: bb56 e44d 6244 823f 33b8 72a0 eb44 9b3f
00000080: 5c15 b87f 8f7d a53f f8ae 6863 b001 993f
00000090: 6bae a6d3 d0f2 863f 3701 ba46 3ef6 893f
000000a0: 27ae f80e 54de 903f 6b41 6cbe cbe9 913f
000000b0: 2ac0 b06d a879 903f 786d c3e6 4c8c 923f
000000c0: 4910 81c2 e557 7a3f b177 f440 4390 673f
000000d0: 0a6f 6646 0869 613f a143 70a7 b654 8c3f
000000e0: 53de d503 8668 943f fa76 c679 ab82 693f
000000f0: 5301 686f 5b46 793f ba27 9c8d 2740 723f
00000100: 4d93 b266 9324 5c3f e120 8c12 408d 473f
00000110: 9e0e 2abd c854 633f e0c2 51d8 f3db 443f
00000120: 39af fe08 7f32 723f 904e c57d 9225 743f
00000130: a102 8f0a c480 743f 4355 b9e2 8b67 933f
00000140: 67d8 122e b492 953f 66a3 39c6 ef0d 843f
0.02107298413245081 0.014092281825180717 0.017176458292828673 0.06519008377186655 0.08690509955766897 0.04190329920347519 0.019317473636194706 0.015504476941222166
0.020718963622330257 0.059182578918702496 0.0754990945836942 0.046041240003760836 0.013488129602364736 0.010818014198862544 0.008919494630883809 0.026630098026253
0.04197357591696502 0.02442050558799644 0.011205321749762484 0.012676703008083308 0.016473115361959636 0.01749342298268301 0.016089088149044674 0.018113328537635337
0.006431481837413663 0.0028764070081157213 0.002125278627500897 0.013833453163927536 0.019929975494476015 0.0031140660414185036 0.0061706134497401975 0.004455713753268082
0.001717704721877672 0.0007187426427615295 0.0023597641641702324 0.0006365719460870965 0.004442688208580675 0.004918644172295608 0.0050056131230468435 0.018949685776836544
0.021067443191633475 0.009792206990100371

exp_avg f8 [1]
00000000: 802c 97b7 94e6 77bf
-0.005835133482331334

exp_avg_sq f8 [1]
00000000: 26c3 732f 030f 5b3f
0.0016515284640343324
