Control_FPL/lightning_logs/model_comparison/linear/default/version_2/checkpoints/epoch=49-step=699.ckpt (torch, 4243 bytes, 6 tensors)

model.fc1.weight f8 [1, 42]
0	0x3fa748a34b5fcf44	0.04547605795951751
1	0x3fa789f2d7f30de4	0.045974339352621546
2	0x3fbcde71e9bf26b5	0.1127692409201256
3	0x3f9cd932a707d438	0.028172294087159794
4	0x3f99f5635e39a3fa	0.02535014402966238
5	0x3fc3729e4bff4af6	0.1519353743629705
6	0x3fa765f4a9e280c2	0.04569973539150986
7	0x3faa12503eec056a	0.05092097061243346
8	0x3fa64ca281bf4248	0.043553427065152805
9	0x3f8c0bfb83ca6609	0.01369472976630261
10	0x3fa81007602939b6	0.046997290123374766
11	0x3fc3467b80eb153b	0.15058845324362288
12	0x3f7c4e1267a1d9b2	0.006910392659952457
13	0xbf889b68d4c4c8e4	-0.012015170090851908
14	0xbfa1d39541ac5a82	-0.034817375437502754
15	0x3f97633f58ab9cbd	0.022839536463746358
16	0x3fa5456495ac88f9	0.04154505087923783
17	0x3f925a3769d0c840	0.01792227347704789
18	0x3f8970dba3aedf40	0.012422290737830743
19	0x3f8e41070f8c0fe3	0.01477246776767766
20	0x3f89ffb3eb3e14ef	0.012694745651752075
21	0x3f6576b12eecb065	0.00262007337678054
22	0x3fa0f55a703df9b0	0.03312189693587031
23	0xbf84255c63773b9f	-0.009836885247663405
24	0xbf9384107f2efc2e	-0.019058473360697707
25	0xbf6eb056cb74a535	-0.0037461943826612395
26	0xbf9e2b1bb86514de	-0.029461320046966992
27	0x3f79ebe0d166b155	0.006328466601570011
28	0x3f7651843a975511	0.005448833960561631
29	0xbfab565169c1fa99	-0.053392929229621085
30	0x3f73faf9dddd67d5	0.004878021279944596
31	0xbf643657f150b920	-0.0024673192624710266
32	0xbf63f15e34c88757	-0.0024344291653201444
33	0x3f93e5ce498e1c27	0.01943132709450537
34	0xbf76d1d12867cabd	-0.005571190855777783
35	0xbf92362d9a8769e8	-0.017784798199366764
36	0xbf7de835c1b3149e	-0.0073015308254912575
37	0xbf9f8cabf71939ff	-0.030810057598779746
38	0xbfaae966f487f2a0	-0.0525619672298252
39	0x3f98bf96e1ad56ba	0.024168355488049832
40	0x3f6d628e6074dca4	0.0035870343014284423
41	0xbfb4901e00ad5ed4	-0.08032405392202274

model.fc1.bias f8 [1]
0	0xbf83852f19a6f23e	-0.009531372042027472

exp_avg f8 [1, 42]
0	0x3f8406cb8969cba5	0.009778585558910377
1	0x3f8195c61ab53ac2	0.008586452188550257
2	0x3f84310d6bb4789a	0.00985918507518262
3	0xbf721eea54f04e5c	-0.004424014433442727
4	0xbf818dcc0f08bbd9	-0.008571237763218708
5	0x3f729414180e4f23	0.0045357499046934395
6	0x3f770275bd845225	0.005617580340431282
7	0x3f8d3ed4cbdcfae0	0.01427999732152102
8	0x3f88dd7f5ea94311	0.012141223026590294
9	0xbf90addca41e97f0	-0.01628823043542832
10	0xbf98834533e50850	-0.023938256542585912
11	0xbf99da40d11bb05b	-0.02524663234991951
12	0xbf51be64aa08053e	-0.0010829909371071335
13	0x3f5f29d75a0da3b3	0.0019020655674586273
14	0x3f8f8b9ebd9f05de	0.01540302292039802
15	0x3f8b5a37d02606a7	0.013355670966805745
16	0xbf364b1ed8bc3eb4	-0.00034017088977209985
17	0x3f99c383b5f1e140	0.025159891109497012
18	0x3f917998e11c9701	0.017065418948866377
19	0x3f819a92bb758a00	0.008595606179999216
20	0xbf56bff4fab75f1d	-0.0013885395409171726
21	0x3f7862cbc4bfe0ff	0.005953594180020837
22	0x3f75dcc53e9f60b5	0.005337496268076493
23	0xbf57d3e9cad6da0b	-0.0014543326500252609
24	0x3f8645de792e7a52	0.01087545211140398
25	0x3f826cc99b139035	0.008996558232361543
26	0xbf740b917ca624b1	-0.004893844898455389
27	0x3f86e3ad0c5440eb	0.011176444948916195
28	0x3f794bde6bae29a4	0.006175869780131658
29	0x3f808a0133153fb9	0.008075723048619797
30	0x3f7021cc713def45	0.00393848285954929
31	0xbf14d150e716fea3	-7.941299715862964e-05
32	0x3f7a67bcf736e62d	0.00644658865660967
33	0xbf74defdcc2d229b	-0.005095473667844043
34	0x3f70354d77d27140	0.0039570833297626895
35	0xbf4a2764efab38c7	-0.0007981531956262827
36	0x3f81dc969a5b1367	0.008721520028652298
37	0x3f806a56fac0cdc8	0.008015327002886333
38	0xbf87ca106cbb44e2	-0.011615875547621394
39	0x3f8a7fb0a34b8a0b	0.012938861831064427
40	0x3f9283045802f204	0.01807791506938551
41	0x3f9eca54c3fd0a21	0.030068706953224947

exp_avg_sq f8 [1, 42]
0	0x3f96d8675358cd00	0.022309889280404782
1	0x3f8ef0cc1d069d89	0.015107721935079936
2	0x3f910c657b7e0382	0.01664885107266257
3	0x3fb126b6924cdd81	0.06699696609290663
4	0x3fb695ed52ce1190	0.08822520515065535
5	0x3fa59f68fdedac22	0.042231827733154384
6	0x3f947adb1194b7d0	0.0199999074440525
7	0x3f8e9b5eb9d389c8	0.014944782300919793
8	0x3f9336dfcebbbfa5	0.018764016144757218
9	0x3fae7d4d758673ad	0.05954973277696438
10	0x3fb3932e7184aa70	0.07646456023636872
11	0x3fa7b9ada57a9428	0.04633848805432478
12	0x3f8cd5ad7b8133d6	0.014079432803692098
13	0x3f8728d8184aee7a	0.011308372727732097
14	0x3f82b913cd353c72	0.009142069530439143
15	0x3f9baae61256f19f	0.02701911436973747
16	0x3fa6c5818b7ead85	0.044475601461580395
17	0x3f99f71f94780feb	0.02535676330263918
18	0x3f869a14f655ddac	0.011036075370369179
19	0x3f878835b304393c	0.011490268254899953
20	0x3f9117f5d1e26d7e	0.016692963538486698
21	0x3f91468d350f1dc2	0.016870695460765146
22	0x3f9008850f0c13d8	0.015657500308424804
23	0x3f927b51bd842cb5	0.018048550789029522
24	0x3f7bb2c4a2b25da8	0.0067622834277680025
25	0x3f66868ea77d5d29	0.0027497087684583876
26	0x3f68efe0a67852aa	0.0030440700245527213
27	0x3f8d3231dbe59c64	0.014255895159932482
28	0x3f92430797841a97	0.01783382284431897
29	0x3f6872a4e96f2411	0.002984354108296568
30	0x3f7fccf13e27b05a	0.0077638076349836
31	0x3f70beb85bd05ad5	0.00408813490959999
32	0x3f5cb45ad386b3d6	0.0017519843077977624
33	0x3f42af74a27a4189	0.0005702323441756789
34	0x3f5dbe5b33f91e42	0.0018154040007106885
35	0x3f4ebf62d4f9b725	0.0009383423402604436
36	0x3f7112c35bb01e6d	0.004168284528538996
37	0x3f7840e68b15e156	0.005921268996978609
38	0x3f6e3cd77becd357	0.0036911209748730456
39	0x3f92c2fe1412b9de	0.018321962332885515
40	0x3f96728389ef7e2d	0.021921210569301564
41	0x3f85043194da62ad	0.010261905055174958

exp_avg f8 [1]
0	0x3f8009515a6527f1	0.007830272265568513

exp_avg_sq f8 [1]
0	0x3f5acd3ffb52244e	0.001635849458838007
