Control_FPL/lightning_logs/version_41/checkpoints/epoch=4-step=124.ckpt (torch, 3287 bytes, 6 tensors)

model.fc1.weight f8 [1, 20]
000000 30 6c be ad 75 9d b0 3f 33 2e e4 e4 ec 45 bb 3f
       0.06490264407914093 0.10653572643439517
000010 6f a8 f6 09 22 50 cd 3f fb 17 0d b5 37 b8 b2 bf
       0.2290079640054645 -0.07312343759721777
000020 f3 b6 75 0c 85 05 bd bf d0 65 87 64 39 fe bb 3f
       -0.1133654742640962 0.10934790329283506
000030 df 7d 5b 56 d6 a3 a0 3f 6c 72 84 76 bc 58 bd 3f
       0.032499979058907995 0.11463525670519353
000040 03 f5 12 06 f7 ae b1 3f 38 b0 ea 6a f9 46 be bf
       0.06907600305835974 -0.11827048168442011
000050 2c 6b 65 e7 c4 92 be bf 19 ec 4c 6f a4 68 a2 3f
       -0.11942701958961938 0.0359546075692025
000060 8c 66 e4 66 d9 3a a2 bf 04 2b 07 aa 5c 34 a6 bf
       -0.03560523396499801 -0.04336824012314902
000070 55 fe 40 dd 78 b7 9b 3f ce c3 5d 2a d0 48 9f bf
       0.027067078117623506 -0.03055119761069474
000080 38 2b a5 64 13 78 bf bf cf de 90 2a 8c 55 b2 bf
       -0.12292596060903527 -0.0716178516312269
000090 1a a4 09 23 c0 83 a3 3f 50 d4 11 62 f6 1e b7 3f
       0.03811455180841268 0.09031619924810852

model.fc1.bias f8 [1]
000000 35 e7 c0 60 a8 60 b4 bf
       -0.07959987985750845

exp_avg f8 [1, 20]
000000 a0 74 a4 e3 6e e7 d9 bf 89 9d b2 64 a9 16 d3 bf
       -0.4047505591459615 -0.29825815995942456
000010 1a 34 8f db 39 26 c0 bf 2c 0d 15 ad 88 a7 da bf
       -0.126166565138562 -0.41647545721589796
000020 56 91 f8 f6 64 2e de bf 78 e5 5b d1 b0 1a cb bf
       -0.4715816890550476 -0.2117520353565785
000030 a2 e9 eb d7 7f d0 c8 bf 97 6a 8d c1 62 86 d6 bf
       -0.1938628963760723 -0.3519522562179786
000040 8d 3b 78 a5 bc 49 b6 bf b4 5a 50 77 9d 4c d6 bf
       -0.08706263580118741 -0.3484262147116326
000050 40 94 5f 41 79 40 d1 bf c5 da 57 1d 57 d4 d1 bf
       -0.2695601595317534 -0.27858522286934956
000060 d3 cf ed b4 e2 61 d7 bf 68 91 e0 c1 6f dc d4 bf
       -0.3653494612583447 -0.3259543793995108
000070 d8 c9 a8 d5 c7 bd cf bf b2 87 5f 3d 1d 21 d6 bf
       -0.2479791444071242 -0.34577113145325733
000080 f4 5c 28 35 a3 0c d8 bf 33 52 a4 6f e9 b2 c5 bf
       -0.3757713336103301 -0.16952245665801655
000090 f0 03 ad 56 2f 96 ba 3f f1 f7 df 4b b9 1f 97 3f
       0.10385413995847137 0.02258195424655435

exp_avg_sq f8 [1, 20]
000000 4a 31 67 2d 47 13 b7 3f c3 c2 c6 68 24 83 b3 3f
       0.09013790949319858 0.07621982152955824
000010 10 dd b3 7c 2a ef a4 3f ea 00 16 f6 ba f1 b6 3f
       0.0408871915078014 0.08962601192434119
000020 e0 02 33 8c 1b fc b7 3f 85 3a 67 35 fa 2d ac 3f
       0.09369060681184349 0.05503827955145816
000030 17 0e 9f b4 de 3c a7 3f 70 5f f5 23 f7 4f b2 3f
       0.045386275814532855 0.07153267505543481
000040 3b 57 69 ed 81 6f 94 3f 73 3d 2f bf de cc aa 3f
       0.01995661746544573 0.05234428485675382
000050 4f 15 5a 46 a6 07 a5 3f b0 9e f1 fb 52 c4 a4 3f
       0.04107398613727275 0.04056033444868257
000060 c7 5c 4b b4 9d 14 ad 3f 20 45 85 d2 88 f1 a9 3f
       0.056797912844268654 0.05067088670569775
000070 40 65 e1 ba 40 93 a4 3f 0d e1 df 72 8a 60 aa 3f
       0.04018595010047443 0.05151779796864462
000080 f9 1f 60 da 58 05 a7 3f 81 8f ca 36 9d fc 94 3f
       0.044962669999279066 0.020494896382515563
000090 a9 c5 85 48 b2 6a 5f 3f 74 6d cc 66 dc 7e 75 3f
       0.0019175282523885373 0.005247937148648563

exp_avg f8 [1]
000000 cb 45 ca d2 38 24 c5 bf
       -0.16516790668951695

exp_avg_sq f8 [1]
000000 6a a6 30 6a 27 fb 80 3f
       0.008291538170016117
