Control_FPL/lightning_logs/feature_comparison/total_points-ict_index-saves-goals_scored-goals_conceded/default/version_0/checkpoints/epoch=99-step=1299.ckpt (torch, 3607 bytes, 6 tensors)

model.fc1.weight f8 [1, 30]
000000 87 5c 9c 4c 6c 2f a5 3f 93 f1 3e cb 95 f9 89 3f
       0.04137743411245603 0.012683077111312701
000010 95 ae 75 c8 97 00 aa 3f 25 32 15 41 b7 b8 b1 3f
       0.05078577348726047 0.06922478999076327
000020 b6 79 a8 9c be 9f b4 3f 5c ad 8e 33 c5 1f c3 3f
       0.08056250881825275 0.14940705316017044
000030 b8 d6 6a 0b 9a 24 a6 3f 95 bb 0c 05 16 e2 a8 3f
       0.04324799908992588 0.04859989940302182
000040 ea 35 b2 9c fb 62 83 3f 97 88 c5 5a 23 ee 90 3f
       0.009466138572203204 0.016533424773463947
000050 a6 33 96 25 9c b0 aa 3f b0 f2 72 32 6c e1 c1 3f
       0.05212867697546324 0.13969185317355004
000060 52 33 e3 f0 7c 64 4d 3f fa 67 10 e6 41 5e 9a 3f
       0.0008969888747515176 0.02575018850993869
000070 f6 c2 57 8f dd 5d a0 3f ff 0e 39 3a df 66 66 bf
       0.03196613669195429 -0.002734600058632241
000080 b4 3d ea ad 57 47 82 3f 20 61 d7 b9 eb 6b 78 bf
       0.00892513751503441 -0.005962296299422826
000090 a3 53 4c 84 2a 4f 70 bf a4 59 4a 78 9e 06 42 3f
       -0.00398174865838011 0.0005501054552777174
0000a0 26 8d 75 59 c9 1d 54 bf 32 06 d4 8d 8f d8 89 bf
       -0.0012278047850820622 -0.012620088115457315
0000b0 6a 37 c0 b7 a8 be a1 bf 31 f0 a3 2f 1f 8a b6 bf
       -0.034657738142512454 -0.08804507172675426
0000c0 dc be df e4 de a9 66 bf 0d 13 16 6c f2 21 83 bf
       -0.0027665475272370243 -0.009342092441110528
0000d0 fd 6d 5b f9 7d 9f 74 3f 35 79 04 3f d4 61 77 3f
       0.005034916006219967 0.005708531462259627
0000e0 bb 92 14 0b 4b 8c 9b 3f d1 3e 7e d9 22 ee b2 3f
       0.026902363349239105 0.07394616899386654

model.fc1.bias f8 [1]
000000 d6 b8 45 de a0 fa 71 bf
       -0.004389408485037735

exp_avg f8 [1, 30]
000000 55 72 72 d9 c8 61 63 bf 91 85 ca be 03 50 7b bf
       -0.00236596325301112 -0.006668104772559317
000010 af ed 9d 7f 55 0c 7b bf a2 b5 0c 1d 2d 61 7e 3f
       -0.006603559473542671 0.00741689321948283
000020 06 7c 1f a3 ba 3b 37 bf 93 21 b4 56 27 8e 6a 3f
       -0.00035451227733845935 0.0032416122754776538
000030 d6 a5 48 9e 33 ae 6a bf 8a e3 b3 83 fa fb 78 bf
       -0.003256893937096032 -0.006099680492518975
000040 c1 ce e4 a4 d2 de 78 bf 7d 65 d2 63 1f 38 7c 3f
       -0.00607187540872517 0.006889460198317263
000050 7a 2a 2a 48 b4 c3 55 3f 50 9c a5 8c 39 5f 58 3f
       0.0013283978047719234 0.0014875471120719026
000060 22 02 d9 1d 9c 08 72 bf 2d 2b c8 cd f5 98 1a bf
       -0.004402742224158847 -0.00010146141307402759
000070 67 21 d4 43 15 76 68 3f 1c cf f6 aa b0 c8 6a 3f
       0.0029859938937343736 0.0032695246261144183
000080 cf 5c 5f bb 7a ea 4e 3f 4b d5 96 0f 3d 42 68 bf
       0.0009434794690105444 -0.0029612724872218102
000090 36 5d 8c 1e a8 db 61 3f 39 75 b8 29 6d ce 68 bf
       0.0021799357967996714 -0.003028119286467981
0000a0 41 4d 46 e2 ae ae 73 bf d9 00 db f1 74 77 7c 3f
       -0.004805262699295655 0.006949860396787432
0000b0 a3 c7 73 c4 68 7d 6d bf ba bf 83 e7 80 cf 82 3f
       -0.0035998388517492637 0.009184844079271549
0000c0 9e 85 0e 3b 45 d5 62 3f 54 f0 5b 1a ac fc 7a 3f
       0.0022989608919068002 0.006588623311241621
0000d0 74 8c fb b3 4d 0e 6b 3f bf 2d f0 ed 41 aa 3f bf
       0.00330271889093719 -0.00048317060094468437
0000e0 10 a2 cf 42 24 98 49 3f b6 78 05 03 ac 01 51 3f
       0.0007810761504716841 0.001037996273303627

exp_avg_sq f8 [1, 30]
000000 cd 45 dc a1 ec 4c 6f 3f 38 ba a8 d8 7c 44 5e 3f
       0.0038208600734683574 0.0018473834230793417
000010 60 fc 9b 48 13 78 60 3f a7 15 f8 db 54 78 88 3f
       0.002010381377544543 0.011948264086650463
000020 7e 89 93 1a ba 4e 69 3f 2d ee 25 fd 80 ec 6e 3f
       0.0030892977562057547 0.0037748832048103615
000030 26 53 5c e3 e5 7b 6e 3f 33 6f ad c3 6d 65 61 3f
       0.0037211885454645653 0.002123560317540818
000040 be a7 7f 35 d0 b2 62 3f 8e 20 c5 d5 cd a8 8d 3f
       0.00228253045860513 0.014482124410861521
000050 f7 0a fa bb fe af 65 3f 54 e2 28 c0 8a 17 70 3f
       0.00264739754476417 0.003928701395630247
000060 fd 50 d9 00 c5 d6 5a 3f 6b 15 a9 f4 62 9f 5a 3f
       0.0016381191120631849 0.001624914776259113
000070 62 aa 87 14 bc a0 5b 3f ed e7 c7 a3 e9 92 67 3f
       0.0016862713547377774 0.0028776706005801873
000080 90 12 99 8d 81 62 60 3f 64 83 36 8f ce 3d 5b 3f
       0.002000096352988763 0.0016626851255312153
000090 c8 60 94 66 4d 3d 6c 3f 40 1f a6 5e 1e 54 5c 3f
       0.003447199986691716 0.0017290398196525142
0000a0 9b 79 c1 74 75 27 5a 3f b6 3c 78 8f c5 92 89 3f
       0.001596321776581178 0.012486976090285356
0000b0 74 87 d5 94 4a d5 64 3f 0c cd 6e 4c 16 12 64 3f
       0.002543111483348898 0.002450030853162871
0000c0 14 00 a0 a2 7c ac 4f 3f b2 53 b1 83 7a 98 60 3f
       0.0009666069574905145 0.0020258324489454633
0000d0 21 34 b8 d4 de 6f 73 3f 05 36 00 17 8c 20 74 3f
       0.004745359834044145 0.00491385195347283
0000e0 62 f0 2c 3e da 1c 55 3f 1e 7a 2e 09 d6 0c 61 3f
       0.0012886172559794175 0.002081316031264948

exp_avg f8 [1]
000000 08 3e 35 fa 2a 99 71 3f
       0.004296462898607974

exp_avg_sq f8 [1]
000000 9b 89 0f 24 ed cc 57 3f
       0.0014526668385249411
