Control_FPL/lightning_logs/feature_comparison/total_points-clean_sheets-saves-was_home-goals_scored/default/version_0/checkpoints/epoch=99-step=1299.ckpt (torch, 3543 bytes, 6 tensors)

model.fc1.weight f8 [1, 30]
0.07559270614309169 0.08189665013171249 0.08776193609803888 0.11446398125545404 0.1218930930454664 0.23594070655171676 0.007951993790214692 -0.016574209786457683
-0.017094432989897792 -0.0011392580558696865 0.018203190353885255 -0.007149184981578318 -5.1692172305503665e-05 0.00329014766329218 0.023201688905045252 -0.013603593526642279
0.00251310153848342 0.0053336134230197625 0.010617324495066735 0.003616744136932012 -0.0032740106346169588 0.01960498508051066 -0.0019993357715559507 -0.007660382719215139
0.011036885655241274 -0.004523158966719468 -0.0016458421113801581 -0.00908696500913468 -0.010885253555808824 -0.052252334779275884
00000000: 3262 b328 0b5a b33f 84b8 f7c9 2df7 b43f
00000010: 93ed 5ff5 9077 b63f e4e7 0ff0 824d bd3f
00000020: 7b12 3dc0 6234 bf3f 19a6 3719 4e33 ce3f
00000030: b1bf 228a 2249 803f d0a2 f563 d4f8 90bf
00000040: 6785 8afa 3381 91bf 39d6 dd05 65aa 52bf
00000050: f6dd 026d dba3 923f dcde 05bb 7648 7dbf
00000060: d684 1e84 011a 0bbf 2479 9c93 f0f3 6a3f
00000070: fe8d 3cfc 2ec2 973f eea6 706a 33dc 8bbf
00000080: 4d04 6b1d 5b96 643f 14c2 8af3 b2d8 753f
00000090: 1893 d12b 89be 853f dfea 27b9 dca0 6d3f
000000a0: f427 4713 19d2 6abf fc95 0947 5413 943f
000000b0: c4ef 1438 e960 60bf b0dc 0f54 7e60 7fbf
000000c0: b0f9 82b7 819a 863f 50ff 623d e086 72bf
000000d0: 6789 bc82 29f7 5abf d7e5 45cc 2f9c 82bf
000000e0: fe36 3f00 024b 86bf 2984 086a d1c0 aabf

model.fc1.bias f8 [1]
0.0010681902824369205
00000000: cdde 0d95 5080 513f

exp_avg f8 [1, 30]
0.008181221236869573 0.0040652264996653975 0.005437248304127466 0.002249988361023028 0.001295313833630568 0.005282282462919121 -0.004286993508830623 0.0026089871326692026
0.006107978554436393 -0.0035877284531386023 -0.0011516760460566512 0.011561364246770251 0.00444191127564931 -0.0017260484046518274 -0.004033031958720403 4.6995295755271564e-05
-0.00426497096783216 -0.000898902958797745 -0.0026552774914856856 -0.005854158762979957 0.009234038671456366 -0.0031830339071054104 -0.0007510661508970456 0.0038457536342282376
0.011435492456460668 -0.001985383716207297 0.005921141727772432 0.011221368410178434 0.0009118473298857231 -0.005362825991927986
00000000: b3c4 3aed 50c1 803f c0cd deed b2a6 703f
00000010: 51e5 573a 5e45 763f 86c6 a94d 916e 623f
00000020: e689 6ca3 f038 553f 42d4 d2e6 dfa2 753f
00000030: 548d b20e 3d8f 71bf e1ce 224d 715f 653f
00000040: b8f2 2c02 ae04 793f 12eb f00b 0364 6dbf
00000050: 0b81 04bd 7ade 52bf 8a38 b20a 7cad 873f
00000060: 0903 927a ae31 723f a335 c15c 9247 5cbf
00000070: 82e2 dcc5 f084 70bf bbcd 1111 9aa3 083f
00000080: e622 346d 2578 71bf 165e b867 8b74 4dbf
00000090: 6688 9b3f 85c0 65bf 42e4 ebc6 87fa 77bf
000000a0: d2cb d4b0 4be9 823f 29f7 0e51 4e13 6abf
000000b0: 38f4 1147 669c 48bf 0baa cc42 2181 6f3f
000000c0: 31c9 e9d0 7d6b 873f 4425 32c4 a643 60bf
000000d0: d253 3661 c440 783f 5365 b492 3afb 863f
000000e0: ffa0 fb3a 21e1 4d3f b0d3 fda3 54f7 75bf

exp_avg_sq f8 [1, 30]
0.0028554360478345803 0.0013220224049369533 0.005036000629781299 0.004569756081932457 0.0061288728611285405 0.0033598519193151198 0.0026623887359736665 0.0015358434614549138
0.0038613485587851715 0.0021310128552450166 0.004602736046566543 0.0028268978134156847 0.0011281236300509031 0.0020925696676067644 0.0030353984820549822 0.0012862188027065369
0.0011606208457724493 0.0008782920490361961 0.0011814471555712063 0.0016635591750407503 0.0013597123917388472 0.0009419826119504355 0.0015373010989460192 0.001958613349771377
0.0024521834635044142 0.001977213532732706 0.0030301394901814395 0.0038683721835936244 0.0051182045456450815 0.0033062029059900415
00000000: 32e0 1e8e 4864 673f 0a26 9abf f6a8 553f
00000010: a4e8 1e20 a1a0 743f 12f5 c28e bcb7 723f
00000020: a48b ffc7 961a 793f 3d8f 9cc3 1e86 6b3f
00000030: d29c 9b11 6fcf 653f 0d0f 145c cb29 593f
00000040: 00f9 e8b8 d5a1 6f3f 6306 a9d0 0e75 613f
00000050: d589 ac8c 51da 723f b252 0c35 6f28 673f
00000060: 65d4 3386 b17b 523f 41e1 2ec9 6f24 613f
00000070: 937f be26 b1dd 683f 5728 5cec ca12 553f
00000080: ee6c d724 ff03 533f 0fcf 3fd0 a5c7 4c3f
00000090: abd1 4939 595b 533f 2cd9 1c10 7941 5b3f
000000a0: 7978 4910 0c47 563f be4b 8041 ecdd 4e3f
000000b0: 2fc6 6b7c e82f 593f 8182 0c89 820b 603f
000000c0: 2505 f2f8 9916 643f d5bd ba6e 8432 603f
000000d0: 839b 67c0 a9d2 683f 47a5 8d80 90b0 6f3f
000000e0: 2b5d 3492 d3f6 743f 0188 5d2b 9c15 6b3f

exp_avg f8 [1]
-0.005399925178094664
00000000: b0f7 a660 3b1e 76bf

exp_avg_sq f8 [1]
0.002499930036196771
00000000: 2d98 edb7 bb7a 643f
