Control_FPL/lightning_logs/model_comparison/linear/default/version_28/checkpoints/epoch=0-step=13.ckpt (torch, 4179 bytes, 6 tensors)

model.fc1.weight f8 [1, 42]
-0.006463899156018001 0.024669277496488517 0.11580882613722512 -0.10217985458792128 -0.1313188822726816 0.029094890531184255 -0.02245829108408787 0.02815053905535755
0.0040835659965025315 -0.13504072359097238 -0.1337647316190136 -0.027306860563757165 -0.07699194306627132 -0.08115361514313092 -0.03121123226262912 -0.0731979827649205
-0.1403264736683024 -0.09704939721384166 0.044619157253075935 0.033959027846375826 -0.11147025310675389 -0.11061704759447744 -0.025942462175940383 -0.13228189594675224
-0.08037382461540855 0.10121776065843407 0.0404196258364608 -0.08745019073048418 -0.10780285992267484 0.11180092543071746 -0.1345248351317242 0.08260222398343824
-0.0642398533129979 0.001359594797567086 0.1302645411303528 0.06945265854187316 0.1006519193293372 0.08444224372585389 -0.0032089019253253885 -0.05170225198738219
-0.0731864235265745 -0.05618757815008124
00000000: 2203 adb7 e379 7abf 43e3 4030 e742 993f
00000010: daf7 d8b0 a5a5 bd3f 5ce1 c37d 7528 babf
00000020: 37ae 5aa0 0ecf c0bf b2a0 3f0d 0dcb 9d3f
00000030: 11bb eb66 4eff 96bf b71c 6eb2 7ed3 9c3f
00000040: a11f 7fe6 edb9 703f 8bc7 b9b1 0349 c1bf
00000050: 80b8 d4e5 331f c1bf b7a2 4f64 54f6 9bbf
00000060: df6e 8675 beb5 b3bf 51ee fdba 7bc6 b4bf
00000070: a0e9 5757 d6f5 9fbf ffc6 1b5e 1abd b2bf
00000080: f38c 95c7 37f6 c1bf 4945 21b3 3ad8 b8bf
00000090: 4ba5 5a7a 52d8 a63f 4f1e 02e4 1363 a13f
000000a0: 7b02 9283 5089 bcbf 1061 cc19 6651 bcbf
000000b0: 9357 7e2a a990 9abf c1da 78f8 9cee c0bf
000000c0: 7978 2d04 6193 b4bf 7c65 cd3b 68e9 b93f
000000d0: 7716 2b96 e1b1 a43f 7665 37bd 2263 b6bf
000000e0: 037d c8dd f798 bbbf fc30 6346 fc9e bc3f
000000f0: 74fd b11b 1c38 c1bf abf2 955a 6b25 b53f
00000100: 0b44 14e5 0572 b0bf f947 3fcc 8d46 563f
00000110: 2cdd fd2b 82ac c03f e4be 0e41 a6c7 b13f
00000120: 0494 ccfd 52c4 b93f 4312 34c3 019e b53f
00000130: c637 691a 8e49 6abf bda9 d4b2 b778 aabf
00000140: c4ce 8e6f 58bc b2bf 902c 3145 9ec4 acbf

model.fc1.bias f8 [1]
0.06257284660124832
00000000: d21d c529 c604 b03f

exp_avg f8 [1, 42]
-0.8642584943464575 -0.7356364897586153 -0.7827683218875136 -1.2662392592569323 -1.3747088815137773 -1.0437867804982217 -0.8240356520394866 -0.7457309285972632
-0.8265455660959679 -1.211459607809034 -1.2848012118729304 -1.065724592106195 -0.6322913908813873 -0.5635209741548034 -0.500177252416015 -0.7869029054895189
-0.9063013695881553 -0.7446782286366316 -0.5283392120445357 -0.5502090722074207 -0.6343559284639456 -0.6497848607144483 -0.6402914801915113 -0.6619276509704903
-0.41975956159026545 -0.1699058392376116 -0.21563508574132753 -0.5768646469913861 -0.6265469619654462 -0.19043200437139177 -0.36729202810066863 0.27978155650960773
-0.18475318832228857 -0.06474354548184566 0.12193595338613042 -0.027913260293080812 -0.29203823192350914 -0.2454965995538177 -0.32407063183675505 -0.6674018019220951
-0.7089497933768684 -0.5022345366378003
00000000: 7843 106e 01a8 ebbf 5f3d 2889 558a e7bf
00000010: e540 db26 700c e9bf 75b7 f618 8442 f4bf
00000020: 67f5 79bd cefe f5bf b9ca 63c4 59b3 f0bf
00000030: 97ec 0704 805e eabf 511c be1b 07dd e7bf
00000040: d126 e1af 0f73 eabf c56f 3f78 2362 f3bf
00000050: bbaf 2db7 8b8e f4bf 8a39 da3a 350d f1bf
00000060: d917 ac27 bb3b e4bf af5b 5323 5d08 e2bf
00000070: b78e aab9 7301 e0bf 3c8e 8600 4f2e e9bf
00000080: b56f d6ba 6b00 edbf 8e33 c16f 67d4 e7bf
00000090: 419f 9da2 27e8 e0bf ecfc 620e 509b e1bf
000000a0: f5d7 d8cd a44c e4bf 068b c69e 09cb e4bf
000000b0: 238f ea8e 447d e4bf 4090 a7e5 822e e5bf
000000c0: c9a9 4d35 57dd dabf 9865 767b 79bf c5bf
000000d0: 3d88 9034 ee99 cbbf a67d 21d9 ac75 e2bf
000000e0: 8897 e136 ac0c e4bf 8584 716f 1360 c8bf
000000f0: 5487 316c b681 d7bf 3be5 cee6 f0e7 d13f
00000100: cf85 d612 fea5 c7bf cebb 7872 0893 b0bf
00000110: b200 00d4 3137 bf3f 9a85 5530 4b95 9cbf
00000120: b9c2 d21f c1b0 d2bf 0a72 2ebd 6e6c cfbf
00000130: 8d4e 55bf 92bd d4bf f27f 1106 5b5b e5bf
00000140: 4de8 217a b7af e6bf 7efe b829 4e12 e0bf

exp_avg_sq f8 [1, 42]
0.01866431450972204 0.013411714613346688 0.015235156902042564 0.03893740545573589 0.04512662650003443 0.0268863973244534 0.016891143674828687 0.013455366815452261
0.017027588755198067 0.035315460289651275 0.04028595913949066 0.02765433234237551 0.009474198142580525 0.00782963143557281 0.006608400953626529 0.01503348021404398
0.019605434288335985 0.013710909370844283 0.007077835724788617 0.007433748997809107 0.01028458407370582 0.010405095744107576 0.010142867466225267 0.010690802365812442
0.004536983796816591 0.0008746271289656151 0.001199228727650556 0.007939745375424998 0.009067216824864225 0.0009715995244869059 0.0032045286175348704 0.0018975632431237136
0.0009504758045022424 0.000136373905149577 0.0003610786837402652 8.08049895166544e-05 0.0024234784853005824 0.0016960751346972254 0.0026583642692275043 0.01099879378564499
0.012080241131163657 0.006433590078002023
00000000: 7ba1 aff1 bc1c 933f ca4d 2edd 9977 8b3f
00000010: f74c 2625 9c33 8f3f 4205 0c86 9aef a33f
00000020: 532f fe51 d61a a73f dcf7 dc94 1b88 9b3f
00000030: ffa2 b376 e94b 913f 12a6 6cc3 7c8e 8b3f
00000040: 0450 5523 ae6f 913f 6177 f935 de14 a23f
00000050: 25f5 fb79 5ca0 a43f 8d4b 03d4 6a51 9c3f
00000060: f3f7 6c59 3567 833f 04e7 a457 fb08 803f
00000070: 444b 981f 6911 7b3f 1941 ea8e dfc9 8e3f
00000080: ac7e 5e6c 7213 943f 7a02 c51a 7714 8c3f
00000090: 9a4b 6e0f a6fd 7c3f e4f2 50cd d972 7e3f
000000a0: 0909 ff81 1510 853f 9b26 764f 444f 853f
000000b0: 38d8 70a0 c8c5 843f 44ba 3b34 0fe5 853f
000000c0: 2d19 7a50 5f95 723f 5e0d 2275 e7a8 4c3f
000000d0: 278c 9a0a eea5 533f 52e2 ce95 b642 803f
000000e0: 0209 d43d d591 823f a584 5b17 5ed6 4f3f
000000f0: 44a8 9033 6240 6a3f a04f 9004 f516 5f3f
00000100: c527 7c3f 2b25 4f3f 38d6 dfec f2df 213f
00000110: 6781 5023 e5a9 373f 6c38 3926 bb2e 153f
00000120: 3c18 c81a 67da 633f 279b 0bcf dac9 5b3f
00000130: 0f28 1c73 fec6 653f da9d d61c 8986 863f
00000140: 316b b084 86bd 883f 6eb8 b1af 1b5a 7a3f

exp_avg f8 [1]
0.12495372149390403
00000000: 6f6e 5493 f7fc bf3f

exp_avg_sq f8 [1]
0.00042614048245461433
00000000: 5a61 866f 73ed 3b3f
