Control_FPL/lightning_logs/model_comparison/linear/default/version_5/checkpoints/epoch=49-step=699.ckpt (torch, 4243 bytes, 6 tensors)

model.fc1.weight f8 [1, 48]
0.02733756761171454 0.0376967694565999 0.08218086342814267 0.020194392453744082 0.0211736704154451 0.14822621976406342 0.03801049313101158 0.035501828825708646
0.023163715128009545 0.0024777378035661093 0.031167856467625522 0.13076663244384631 0.01171904071834423 -0.014191764100243085 -0.02996330683948816 0.039374382572539106
0.05254128605548605 0.0437038073107863 0.009305332159931217 0.01336470199123929 0.015840937667004413 0.003375465033038964 0.023466439710824894 -0.009177601570505624
0.007717030284682631 0.00865456683457065 -0.02224842152326715 0.008913483425155523 0.0035963071424509633 -0.05934320911990221 0.003367937470722528 -0.0019371062840445393
-0.00827776947615261 0.011755029107951771 -0.01453696320372403 -0.0188266813916375 0.018814843697999354 -0.0120738550751283 -0.01996213359253513 0.028204895814967254
0.009555658048074019 -0.06996755845624632 0.0021358229649607397 -0.010988170770223963 -0.008546296811142176 0.022566720130696664 0.05269839334990978 0.08925128408571223
00000000: 56c5 601b 61fe 9b3f da3e f6af fd4c a33f
00000010: 0fea c718 ce09 b53f da0d 9bbc d6ad 943f
00000020: 10ea e1f7 8cae 953f 2aef 25a7 13f9 c23f
00000030: 1218 ce81 1c76 a33f 135c 82b3 4b2d a23f
00000040: 07f3 b69b 3ab8 973f 3e3c b35a 314c 643f
00000050: da07 dc70 77ea 9f3f 478f e004 f6bc c03f
00000060: 5f99 0105 2700 883f 5ff8 7655 9210 8dbf
00000070: ae8c d27b b3ae 9ebf cf03 e60a e128 a43f
00000080: b49f 9802 b1e6 aa3f 2495 386e 5860 a63f
00000090: 764c 718a ac0e 833f 7f07 c9ef f35e 8b3f
000000a0: 15fc de54 9b38 903f d648 9ffd dca6 6b3f
000000b0: cd39 721c 9607 983f 01ee ced4 b4cb 82bf
000000c0: 8887 1e8b e49b 7f3f b7cc 1f4c 7cb9 813f
000000d0: eaf9 514b 4ac8 96bf c193 6f7e 3b41 823f
000000e0: 06b8 05b2 0076 6d3f 20c0 d1ac 3b62 aebf
000000f0: 37d2 55a9 1397 6b3f 22e0 e208 d0bc 5fbf
00000100: e1a1 7869 eff3 80bf 774e a84c 0513 883f
00000110: 145f 582c 8ec5 8dbf 6d28 7a33 4d47 93bf
00000120: 01f4 72c9 3244 933f 987c 7965 2dba 88bf
00000130: 51d7 c01b f470 94bf 8c11 7384 bee1 9c3f
00000140: 0445 77b6 ea91 833f 65bd 59d7 64e9 b1bf
00000150: 120d 1b39 257f 613f 02cc ce50 f780 86bf
00000160: c834 728a b880 81bf f1de c1f3 ba1b 973f
00000170: b0ad faa7 48fb aa3f fe2d 4612 2cd9 b63f

model.fc1.bias f8 [1]
-0.005325033952800633
00000000: 2c80 d6ea b3cf 75bf

exp_avg f8 [1, 48]
-0.006622390717528461 -0.014982401625805624 0.011763762652756539 -0.003974310525733963 -0.003764460756220852 -0.020267387610139846 -0.01863985048837398 -0.002316863292296748
0.0001939304968949227 -0.006805632661703673 -0.017901160560994844 -0.03207459163188786 -0.003899472731766547 -0.004896616379806022 0.006073934458796257 0.010600496362390672
0.0018999578032516528 -0.0013607370900539195 -0.0014616874531404914 0.003219485766350097 -0.007742615716234071 -0.005541727563272557 0.005035452110232405 -0.007125580195905829
-0.01333524689157846 -0.005680963081483788 0.012163029622324519 0.008490287820901936 0.006535884557601759 0.02183118244634912 -0.0024281841525535665 -0.0034149656027520113
0.00046778599751407787 0.0005786901460835023 0.004948002132209222 -0.0005448709154557864 -0.014829033125543407 -0.009327607527044915 -0.009651613426523015 0.010867854319941092
0.01091852448210402 -0.002104414472101364 0.0030867336672864296 0.0032546737425257536 0.007083803742432193 -0.005220347740931725 -0.0012780228681202224 0.007046282378820545
00000000: 0293 d978 1420 7bbf a9aa fce7 17af 8ebf
00000010: a7d2 f87e 9917 883f 1efe b6db 5d47 70bf
00000020: 2bae b87a a5d6 6ebf cef7 d75b f9c0 94bf
00000030: b4e4 ff30 5316 93bf 0820 3b82 d0fa 62bf
00000040: f8f7 a148 3a6b 293f 23a5 5e1b 39e0 7bbf
00000050: f3fe ad8c ae54 92bf e0da 2eb4 146c a0bf
00000060: 76ba 587b c9f1 6fbf abae 6573 790e 74bf
00000070: a3bb bc5d fbe0 783f 772a 9589 b6b5 853f
00000080: 3d5f 3d28 0021 5f3f 2e10 3753 584b 56bf
00000090: 96be b9f3 c2f2 57bf d3f5 7142 c05f 6a3f
000000a0: b568 9694 b8b6 7fbf 188f 5c2a ecb2 76bf
000000b0: a3f4 24e2 0da0 743f 14c8 805e b62f 7dbf
000000c0: 296f 448a 824f 8bbf efeb 50ea eb44 77bf
000000d0: 81d6 9533 eee8 883f 1cf9 3124 5b63 813f
000000e0: dc27 ce26 5fc5 7a3f cd70 8fda e95a 963f
000000f0: 5fa6 c370 45e4 63bf 0aca 95b2 b3f9 6bbf
00000100: 97d8 938f 25a8 3e3f 1cc5 3fa0 67f6 423f
00000110: dffd 6935 5b44 743f 9b1d 9761 b5da 41bf
00000120: 04af 7122 af5e 8ebf db88 3a4a 5a1a 83bf
00000130: 9016 2aa0 39c4 83bf c501 0eb7 e241 863f
00000140: a7d7 918c 735c 863f 9089 b7ea 463d 61bf
00000150: 42ee e084 5949 693f 0bc7 10a9 8ba9 6a3f
00000160: 59ff 7a16 e803 7d3f 8704 236d ee61 75bf
00000170: d3f4 039b 6af0 54bf 80b3 0106 90dc 7c3f

exp_avg_sq f8 [1, 48]
0.018040398615979697 0.01152881004909454 0.010933581642959022 0.05103930038112674 0.06814492154216137 0.029879126926090644 0.01572824425299107 0.012211433253272164
0.013268572348515532 0.0413625152932515 0.05432591481991399 0.03511553040312191 0.013819143040885901 0.007258126807341643 0.004781242754909558 0.026172988046583558
0.044148841004071265 0.016728572343087958 0.0076882461962672535 0.008026383863589526 0.010577412748742996 0.012054560458076284 0.01094321213460749 0.012862154905078204
0.011774015317800864 0.0029224618053503805 0.0035876724810379565 0.011722813561013831 0.015475823146446072 0.004494671478728442 0.00622910330952004 0.004201192389384347
0.001812580906597448 0.0016644144289767505 0.0018357223742484392 0.0008253646361701591 0.004468669856584649 0.005246604680882853 0.0038959758431685067 0.0160327979799274
0.018861549594652235 0.009047790745094337 0.00350413574042255 0.006507286909409242 0.008731668970478853 0.0042380134722414375 0.0056610600680293425 0.019275799221702316
00000000: 58ef 3fa8 2e79 923f b333 fbb0 6a9c 873f
00000010: 935f ad7c 5864 863f a633 e5bb d221 aa3f
00000020: 5a7d 6911 f271 b13f 6520 ec43 a298 9e3f
00000030: afa8 c29a 101b 903f 1a44 aed3 4e02 893f
00000040: 8270 69a2 8d2c 8b3f 3dfc edb4 772d a53f
00000050: be20 f436 9bd0 ab3f 2582 53ad a9fa a13f
00000060: aad4 5afb 354d 8c3f a2b7 4894 b2ba 7d3f
00000070: 92e2 4314 7f95 733f 8a71 cb7e 17cd 9a3f
00000080: d49e 8948 ad9a a63f d444 7d7c 4b21 913f
00000090: d601 a0df b57d 7f3f 2d15 9801 2370 803f
000000a0: 723b a84e 9ca9 853f bc11 7bb7 0fb0 883f
000000b0: 4bc3 d911 6569 863f e61d 6335 7957 8a3f
000000c0: 3e47 dc95 f91c 883f f6d8 16bc d8f0 673f
000000d0: d9b3 31ff e463 6d3f d8ad e466 2102 883f
000000e0: 1d61 57d2 c9b1 8f3f 3552 1e30 0169 723f
000000f0: c7f6 f62f b083 793f 1c6f aafe 4435 713f
00000100: 92ac c5ed 83b2 5d3f 1547 8662 0f45 5b3f
00000110: d0b3 f6e3 9313 5e3f b5e5 4f0f a90b 4b3f
00000120: 651c 406e bd4d 723f 5198 4fb8 767d 753f
00000130: 4824 a31a 74ea 6f3f dfda f2db e66a 903f
00000140: 7cc6 a42a 7150 933f 8a52 cfea a587 823f
00000150: 44cd fc8c b4b4 6c3f 5eb8 6287 62a7 7a3f
00000160: 8b75 57c5 e8e1 813f ae69 3614 e15b 713f
00000170: f162 a53d 0d30 773f c3bf 0bfd 08bd 933f

exp_avg f8 [1]
0.0015011016679467564
00000000: f868 98a4 1398 583f

exp_avg_sq f8 [1]
0.0014237253893064794
00000000: 4d5a 137f 8953 573f
