Control_FPL/lightning_logs/feature_comparison/total_points-saves-assists-was_home-goals_scored/default/version_0/checkpoints/epoch=99-step=1299.ckpt (torch, 3543 bytes, 6 tensors)

model.fc1.weight f8 [1, 30]
000000 ac 8c a4 41 4f 01 b3 3f cf 77 4d 76 43 96 aa 3f
       0.07423873283964849 0.05192766970752382
000010 06 b8 33 d2 a5 30 b3 3f 64 3b db a0 6c 2f be 3f
       0.07496105558286112 0.11791113783986656
000020 ee 4f c0 b0 9c f8 c1 3f 58 7c fe a0 48 96 cf 3f
       0.1403995383303704 0.24677379475631045
000030 77 01 3b 5d 30 45 22 3f f7 56 f1 46 fc 16 8d 3f
       0.00013939109213901752 0.01420399753093758
000040 33 13 b0 27 a6 1e 95 3f 1e 23 fe 81 3d 67 89 bf
       0.020624729320860524 -0.01240394642788228
000050 94 b7 07 03 42 05 73 3f 9b c3 5d 5d 7a 94 56 bf
       0.004643686159836142 -0.0013781733482256312
000060 fc af 04 0b aa bd 6f bf c1 d5 a2 ce fd f6 98 3f
       -0.0038746186402445187 0.02437969754892833
000070 56 25 b3 80 e2 ba 76 3f c8 3b f7 b4 88 0d 69 bf
       0.005549320961287426 -0.003058211331996106
000080 31 5f a0 df 8f de 85 bf 9e 2d 5d 0d 02 24 a4 bf
       -0.010678409587896094 -0.039337219363541495
000090 93 26 a1 8f 60 01 84 3f e2 2c 1d ca 99 3d 81 3f
       0.009768251784538584 0.008418275337723494
0000a0 87 25 12 be 3d 0b 76 3f 35 73 94 40 0e 54 92 3f
       0.005381814176084083 0.01789877194561314
0000b0 33 4c 11 17 b4 8a 6d bf 70 eb 05 1b ed 37 84 bf
       -0.003606178034297547 -0.00987229574888257
0000c0 dc 84 92 6e 91 d6 96 3f 1b 9e 05 64 68 65 81 3f
       0.022302887319374118 0.008494201233317835
0000d0 f5 79 49 22 f7 fc 75 3f 25 f8 c1 6d 45 b3 8f bf
       0.005368199698379862 -0.015478651439703903
0000e0 f7 a6 58 52 e1 f0 92 bf 0a 74 e1 71 94 2c ab bf
       -0.01849700989820399 -0.053074492360544026

model.fc1.bias f8 [1]
000000 50 44 2d b3 96 55 82 bf
       -0.008952309935610497

exp_avg f8 [1, 30]
000000 16 11 94 a1 31 f6 72 bf 7c 2f 71 c7 d7 44 80 3f
       -0.004629320022335534 0.00794380738638955
000010 88 7f 78 4e 82 14 77 3f 66 8b be 38 3e 9b 33 3f
       0.005634793290965841 0.0002991701992362455
000020 9f 33 52 f6 57 9a 7a 3f 9e f8 1a e4 c7 17 89 bf
       0.006494849779426297 -0.012252389572833085
000030 82 35 e5 ef 73 98 58 3f 7a 35 57 1d f8 3b 04 bf
       0.0015011913488537092 -3.85937779970686e-05
000040 ac 43 57 aa 26 a4 48 3f f7 4e 4c 39 50 ea 74 bf
       0.0007519902034634949 -0.005106271147059741
000050 c8 ea 86 cd fa 5e 67 bf c9 b0 15 c3 c5 86 4b bf
       -0.0028529070370642874 -0.0008400407443054588
000060 a3 f4 55 cc 25 92 85 bf bd fd 72 48 01 cd 04 3f
       -0.010532660768826146 3.967437901896849e-05
000070 d9 37 89 27 e4 5c 76 3f fe 9e b9 61 61 6d 8b bf
       0.005459681728622067 -0.01339222030146869
000080 d8 6a 60 1b 35 8a 48 3f dd 2f d3 70 2e fd 78 bf
       0.0007488974868040356 -0.006100827607223605
000090 bb 29 2a 13 3e eb 33 3f e9 33 57 2c d7 06 50 3f
       0.00030393853663981577 0.0009781934071384452
0000a0 b0 7c 4c 2b 4b 60 5b bf 95 d6 83 5f 56 e7 3c 3f
       -0.0016709074090568814 0.00044103487699884955
0000b0 04 e2 b6 86 6e 2a 6c 3f 42 9e 36 c0 0e 9b 55 bf
       0.003438201781787111 -0.001318706898794889
0000c0 33 fe db 01 3f c3 94 bf 10 9c 38 6a 5c ac 4d 3f
       -0.020276054848180357 0.000905556797481279
0000d0 f0 b0 c5 82 ad ac 70 bf b1 4f 61 06 1a c7 79 bf
       -0.00407092836062993 -0.006293393764355602
0000e0 3d 62 77 ab 8e c7 83 3f ca 18 ee a3 50 09 84 bf
       0.009657969100701819 -0.009783391955135907

exp_avg_sq f8 [1, 30]
000000 1e d4 4f 0d 3f 30 60 3f 7c ff ce 63 e4 dd 70 3f
       0.0019761306270944653 0.004117862842519911
000010 5b 39 3f 58 2e b4 64 3f 7e f8 c5 e9 5c 78 78 3f
       0.0025273232622346326 0.005974162046525787
000020 d7 66 85 c7 6a 24 91 3f f5 35 fa cc 9e 15 8c 3f
       0.01674048273830561 0.01371311247865046
000030 eb 90 c6 0b 63 c4 52 3f 7a 71 ca e8 d8 13 4f 3f
       0.0011454550977783539 0.0009484109046585109
000040 dd eb 99 4c 47 83 56 3f 01 52 ef a2 8d a8 53 3f
       0.0013740726739388455 0.0011998541992755964
000050 a0 5f c4 bf d5 08 55 3f 24 ba f3 1d 7d 4a 53 3f
       0.0012838446992357935 0.0011774274678902985
000060 f8 c7 2d 4f 51 44 61 3f 50 81 92 9b 36 07 62 3f
       0.0021077716896167296 0.0022007051998828367
000070 91 a0 96 09 80 5b 61 3f 5c 75 04 d7 97 8c 6b 3f
       0.0021188259822402873 0.0033629384635235748
000080 d4 7a 84 33 44 ab 6f 3f 1c a2 b3 b7 b8 5e 62 3f
       0.0038658458762620227 0.0022424323811842794
000090 6f cd 5c e9 55 4a 59 3f ce 02 ba 80 d0 36 46 3f
       0.0015436018924902225 0.0006779211120858332
0000a0 45 ad 2c 5c fc 67 45 3f c5 f6 e6 fe b5 1d 5c 3f
       0.0006532652117576051 0.0017160680105087628
0000b0 1c 32 c8 94 f4 03 51 3f 78 f2 16 8d 26 ea 40 3f
       0.0010385406959613269 0.0005161941755243557
0000c0 94 45 05 c1 24 17 6f 3f 13 61 63 d7 90 73 5a 3f
       0.003795215401773697 0.0016144670931251312
0000d0 16 60 4b f7 48 e6 72 3f e4 ef e9 df 0b f6 6c 3f
       0.00461414816228258 0.0035352928092020498
0000e0 88 09 2e 3c 63 3e 74 3f 17 9f e5 2e 8a d7 65 3f
       0.0049423099870885626 0.00266625393776455

exp_avg f8 [1]
000000 b2 74 ce 6b 72 2f 72 3f
       0.004439780194755704

exp_avg_sq f8 [1]
000000 8f 15 51 ac 25 54 4d 3f
       0.0008950408888572114
