Control_FPL/lightning_logs/feature_comparison/total_points/default/version_0/checkpoints/epoch=99-step=1299.ckpt (torch, 2903 bytes, 6 tensors)

model.fc1.weight f8 [1, 6]
0	0x3fb76afdde558800	0.09147631338194628
1	0x3fb3ce89d307ad07	0.07737027551745622
2	0x3fb462fa2c4649e2	0.07963527279779428
3	0x3fbd208c0bf00eb8	0.11377787867973665
4	0x3fbd12039411a0fd	0.11355612149202794
5	0x3fc953735e48f3ff	0.19785921195753528

model.fc1.bias f8 [1]
0	0xbf62cb1a448e0b7d	-0.0022941124956913903

exp_avg f8 [1, 6]
0	0xbf5655ab8049e2b1	-0.0013631987395951557
1	0x3f62fef6c920e272	0.00231884193729242
2	0x3f4e02cba026a4f1	0.0009158605828833139
3	0xbf81b3bd73bb300a	-0.008643608183227531
4	0xbf83d3a81f226196	-0.009681046915191154
5	0xbf6015d28ede3ce0	-0.0019635307753059633

exp_avg_sq f8 [1, 6]
0	0x3f903cd711239d2c	0.015857086583222088
1	0x3f848acb3588ff27	0.010030353137267035
2	0x3f71c56e8d6c23d7	0.0043386763052319565
3	0x3fb06db3cbb05d74	0.06417392466425104
4	0x3fb81b1c8db05a56	0.09416368922425397
5	0x3f94084d90c9cd07	0.019562923395324307

exp_avg f8 [1]
0	0xbf87ee5009551c63	-0.01168501404266759

exp_avg_sq f8 [1]
0	0x3f5f7bfe7d57b341	0.0019216523409070904
