Control_FPL/lightning_logs/feature_comparison/total_points-ict_index-goals_scored/default/version_0/checkpoints/epoch=99-step=1299.ckpt (torch, 3351 bytes, 6 tensors)

model.fc1.weight f8 [1, 18]
00000000: 8885 36aa 92d8 af3f 65fa e5d3 3f0b ad3f
00000010: 6fb2 d629 2424 b03f 1450 1f78 9d64 b33f
00000020: 5c33 fdee ec95 b73f f9a5 671a 919f c13f
00000030: a2f8 bc95 5b33 8a3f 6503 45ed ee2a 9f3f
00000040: ffdf 3218 7173 743f d1ed 0c80 5246 9f3f
00000050: d8af 79c8 f133 b23f febc 23b3 1f08 c43f
00000060: 0b47 a141 252e 593f a009 0f33 3ef4 99bf
00000070: 5ec6 72f0 0e9a 4dbf 3d6d e38f 23a1 97bf
00000080: 885d 0d2a 17ff a6bf 0e6a 1242 b04b b8bf
0.06219919517321687 0.056726450554369014 0.0630514719147841 0.0757540148036358 0.0921314319104573 0.13768209256458855 0.012793269641062036 0.03043721507242782
0.0049929063563283185 0.03054169565733195 0.07110510963838068 0.156497919531354 0.0015368808585844464 -0.02534577547681638 -0.000903374952846824 -0.023075633675813768
-0.044914935954405044 -0.09490491498073814

model.fc1.bias f8 [1]
00000000: 7822 b8a6 4e3b 7dbf
-0.007136637908396019

exp_avg f8 [1, 18]
00000000: f46b e812 5643 823f 4b94 32f8 d3fc 40bf
00000010: 1f00 6082 df26 7a3f 5793 6935 daf5 59bf
00000020: f7ef 16b8 06e1 73bf 62e3 8593 b93c 82bf
00000030: 79e2 5fc3 abed 3dbf e1a1 09ac 353f 6e3f
00000040: f6ad 12e4 5be6 76bf 7c50 30b8 0a6a 5ebf
00000050: 3184 70a2 2432 5dbf 5d65 d00c c43e 7fbf
00000060: 0737 c591 e49d 623f 1757 9189 0761 8ebf
00000070: 91fd a0cd eee8 73bf 247a 7f6c c559 6ebf
00000080: 4923 c712 fc29 82bf 36eb 0e95 8383 8bbf
0.008917496158622008 -0.0005184206969671782 0.006384728510965969 -0.0015844946807643445 -0.004853273626789437 -0.008904886068863586 -0.00045667117535645 0.0036922500878981833
-0.005590781163089078 -0.001856337040185201 -0.0017819745787692849 -0.007628217525984607 0.0022725548025509554 -0.01483350647519503 -0.004860813927791156 -0.0037049156126010164
-0.008869141886764036 -0.013434436785123443

exp_avg_sq f8 [1, 18]
00000000: cf4d 906a 183e 7e3f 3d6f 24b2 3add 883f
00000010: 966b 40c7 1fba 813f 93a8 7e3a ce28 a23f
00000020: de43 453f 6bf2 693f 1aef 64a7 4327 943f
00000030: 938b 2889 2ea8 8e3f f0b3 b1de 29d0 923f
00000040: c21b 4e69 b879 903f 4707 d838 e7b3 a13f
00000050: 1239 83ce 985b 7a3f 400f 606a 7b95 953f
00000060: 5adc 13b8 0ec9 6b3f f95e a3d1 497b 843f
00000070: 0a6e ae40 0499 733f 4a49 7a44 625d 9a3f
00000080: 1d63 5224 8cde 603f d49a 7203 fe60 7f3f
0.007383437515290094 0.012140711366150131 0.008655784862687626 0.035467571869348145 0.0031673521681700864 0.019681031314788468 0.014969218788854188 0.018372205941364628
0.01608932631236449 0.034575677575061685 0.006435009862072032 0.021078041427258443 0.003391770122671595 0.01000077887549321 0.004784599887809113 0.025746856145425746
0.002059243883718044 0.0076608583832810835

exp_avg f8 [1]
00000000: 5e3d 961b 1656 783f
0.005941473349039354

exp_avg_sq f8 [1]
00000000: 19a9 fca6 f2c1 453f
0.0006639895272873313
