Control_FPL/lightning_logs/feature_comparison/total_points-assists-was_home-goals_scored-goals_conceded/default/version_0/checkpoints/epoch=99-step=1299.ckpt (torch, 3607 bytes, 6 tensors)

model.fc1.weight f8 [1, 30]
000000 bd 80 b1 75 51 5c a8 3f d1 69 41 26 67 20 ac 3f
       0.04757933198630002 0.05493471471773471
000010 44 33 6b 88 e8 75 a8 3f a6 ef 64 51 d3 5d b5 3f
       0.047774569180182996 0.08346291291394312
000020 08 1e 81 db 73 1a bf 3f 07 25 cf a7 2f 77 d0 3f
       0.12149738415711664 0.25727454555142554
000030 a5 ba 42 c5 c9 83 74 3f 15 0a 07 b5 57 0d 90 3f
       0.005008495489319619 0.015675898002664185
000040 f2 39 fe fc 00 33 6a 3f ad 26 ad d1 b1 7f 56 3f
       0.0031981486608352256 0.0013732182039398009
000050 e8 27 1d 3d 28 c5 8f bf 51 94 b6 98 52 99 a8 bf
       -0.015512766232536238 -0.04804475893187344
000060 5a 22 2a bd 1f 0f 83 3f 9c d7 19 62 e5 5f 0e bf
       0.00930619045290475 -5.7934940071043705e-05
000070 46 6a e5 bb 68 ed 50 3f e4 38 8c ad e3 f4 91 3f
       0.0010331652443570523 0.017535741298211685
000080 d9 86 3c 84 38 88 69 bf ed e7 3f e7 60 d0 77 bf
       -0.0031167129362906607 -0.005813959625806203
000090 19 81 09 0f 5f 2f 9f 3f 44 82 88 ac e0 cf 7a 3f
       0.03045414475707373 0.006545903809211998
0000a0 e4 75 3a 20 e0 7b 84 3f be 0d de 2b 1c 59 80 3f
       0.010001898749858414 0.007982463921286317
0000b0 db 69 f7 8b ac 02 93 bf f5 85 98 dc 82 f1 b0 bf
       -0.018564888041376775 -0.06618516812934401
0000c0 fc 1a 49 81 1a c7 80 3f c5 5a 80 fe ef df 60 3f
       0.008192259855730459 0.0020599067102112533
0000d0 64 93 39 34 a7 13 76 3f bf 33 8a 20 a0 51 94 3f
       0.005389836445463956 0.019842626558375317
0000e0 fd 38 4d ab 1c 9b a7 3f 36 08 30 7a 9a 42 ba 3f
       0.046105285559507415 0.10257878764244385

model.fc1.bias f8 [1]
000000 7c 7e 89 e2 d2 8f 7f bf
       -0.007705520409757246

exp_avg f8 [1, 30]
000000 ce b8 e8 2b 40 22 78 3f 60 2b 5f 9a d4 8b 6a bf
       0.005892038984297977 -0.003240504493964222
000010 7b 59 61 37 9f 92 78 3f ed 5c 1a 77 b0 e3 54 3f
       0.005999204577241786 0.0012749884885233057
000020 6c cf 5f 38 12 6b 81 3f ae c0 ff 8e 82 15 27 3f
       0.008505003304868551 0.0001761171220091609
000030 a6 94 4e 69 c3 d8 71 3f f0 28 06 49 59 5e 66 bf
       0.004357112241369842 -0.0027305358746093564
000040 b6 74 0e 3e 3a ff 56 3f 02 2e 69 a6 f2 07 69 3f
       0.001403624417640343 0.003055547643531887
000050 37 b9 c5 f4 71 d5 78 3f 4a e4 e7 c5 4d 24 73 3f
       0.006062932149104853 0.004673293877652427
000060 8f 5b 7a d4 88 04 31 3f bc 2e ca 23 25 03 6c 3f
       0.00025966969085671696 0.0034194684397500213
000070 99 58 2e c8 c9 cc 86 bf 20 8f df 31 de 10 72 3f
       -0.011132790013828763 0.004410617779260467
000080 79 5c e7 f9 dd 88 32 bf 75 69 f0 45 31 d0 59 3f
       -0.00028281611767284155 0.001575515859946278
000090 d7 e8 33 ae bd 13 30 bf 94 8b 14 b4 63 c6 3d bf
       -0.0002453172766788808 -0.0004543298164937867
0000a0 6d 22 a2 aa c7 5c 5e 3f 35 71 f0 19 bb cc 61 bf
       0.001853175150730159 -0.002172818596149063
0000b0 21 f8 78 a1 fb 07 67 3f fd 3c a5 9b b3 41 88 3f
       0.0028114237464072077 0.011844065844938795
0000c0 41 c9 91 ee 10 82 7f bf 87 43 10 38 36 18 8b 3f
       -0.007692400112420395 0.013229774080203217
0000d0 06 42 8c b7 b7 ce 6d 3f f2 dd 0d 8f 07 39 53 bf
       0.003638609716638766 -0.0011732648674448423
0000e0 f8 ab ce 37 52 55 82 3f ed c3 e2 66 82 58 84 3f
       0.008951799705604543 0.00993444324953604

exp_avg_sq f8 [1, 30]
000000 fa 9f c3 b6 d2 8b 83 3f 82 4f 06 8d 75 2c 66 3f
       0.009544035151023412 0.0027067466655327785
000010 eb e8 46 42 72 19 75 3f d8 25 4f b3 6b 97 7c 3f
       0.0051512206304613435 0.006980343537131138
000020 fe b5 65 db 81 7a 6d 3f 80 67 2e 89 e5 d3 84 3f
       0.0035984550733505474 0.010169785736980463
000030 79 a6 3b b6 06 73 71 3f d3 4b e8 54 50 96 5c 3f
       0.004260088174967807 0.0017448219765625508
000040 f6 90 8e f5 61 7c 63 3f 32 a5 50 de bc a6 6b 3f
       0.002378646208358255 0.0033754052006044416
000050 76 8d b5 f5 f6 a6 65 3f fa b5 09 c0 dc ad 5b 3f
       0.0026430915292380798 0.001689401222530916
000060 16 3f ee 08 5e a6 65 3f 3f 0f b9 d1 fc a5 61 3f
       0.002642806684384778 0.002154344356115972
000070 f9 fd 78 5f 49 43 5e 3f 13 d9 de 1f fd fa 5d 3f
       0.0018470970661751392 0.0018298599165809711
000080 67 af 4b d9 3c e0 57 3f 9d 44 ef 31 b7 44 52 3f
       0.001457271025340179 0.0011150158895712255
000090 a8 4d 56 a9 61 38 75 3f a9 30 e3 a5 e6 a2 68 3f
       0.005180722704057152 0.003007364735003366
0000a0 55 17 2d 5a f2 d9 68 3f 11 6c 79 8c 91 ee 7c 3f
       0.0030336125795739446 0.007063454198568146
0000b0 ea 5d d3 0a ac 4f 62 3f e9 1a c7 2d 62 01 69 3f
       0.002235256214230698 0.003052417521959828
0000c0 ee 1d ec df d3 9f 61 3f 6a b7 83 32 24 e3 70 3f
       0.002151407068030179 0.004122868915357939
0000d0 77 a2 3c 9b e5 af 59 3f 1c 10 2d ee 18 a9 58 3f
       0.0015678159952107454 0.0015051597080892936
0000e0 ea 00 02 a9 83 f7 5d 3f 0c d2 f1 d1 12 5d 53 3f
       0.0018290315383922514 0.001181858424186835

exp_avg f8 [1]
000000 f1 48 24 66 da 35 80 3f
       0.007915216676825017

exp_avg_sq f8 [1]
000000 0d 22 99 74 4e 50 53 3f
       0.0011788145224206376
