Control_FPL/lightning_logs/feature_comparison/total_points-clean_sheets-assists-goals_scored/default/version_0/checkpoints/epoch=99-step=1299.ckpt (torch, 3351 bytes, 6 tensors)

model.fc1.weight f8 [1, 24]
0.08008645208308754 0.05607055192289705 0.0926334426882564 0.10998235055419019 0.16661645238506087 0.23719030220199105 0.006666757787482456 -0.0008493514752422394
-0.009256005190569391 -0.002699755579572342 -0.00829997896388887 -0.001151991200858927 -0.009129590532273113 0.0203967652215687 -0.004590412578867095 -0.0022756259723339944
-0.01653691316686803 -0.03426658049469441 0.01175344054154329 0.0064641884446423395 -0.0030727743068939464 -0.008036910916272217 -0.03857588123680763 -0.04749170099498509
00000000: 22ae 8cb4 8b80 b43f 2616 8e85 47b5 ac3f
00000010: dca8 dc46 d3b6 b73f e377 c4a6 cd27 bc3f
00000020: 9114 fc1a b053 c53f 7265 7177 405c ce3f
00000030: 5773 ae2a 9a4e 7b3f 3e7c 8c67 e0d4 4bbf
00000040: d849 aefc cff4 82bf d592 7c3d cc1d 66bf
00000050: 6fbc a851 94ff 80bf 6a29 1c22 cddf 52bf
00000060: 338b 18e6 88b2 82bf 1387 48be e3e2 943f
00000070: b00e 6c7e 65cd 72bf 009c 2164 55a4 62bf
00000080: 47f9 e974 0def 90bf db13 24a5 638b a1bf
00000090: d267 ee15 3012 883f e84f 705f 317a 7a3f
000000a0: 6cc2 fe24 132c 69bf b7ba 5eec a775 80bf
000000b0: eb26 a7c8 37c0 a3bf bcb1 350d d550 a8bf

model.fc1.bias f8 [1]
-0.007404481065818658
00000000: cd3c 5840 2954 7ebf

exp_avg f8 [1, 24]
0.0029703219977372385 -0.004580405516873049 -0.006419784604859368 0.0011317551183001357 -0.004819087979797851 -0.02080943108428409 -0.006352220819574763 -0.001927396431492116
-0.004102029967208458 0.0011090168780738797 0.006402591645343362 -0.0018136404558101555 0.0013061266865640425 -0.012737395917826742 -0.002231865827520438 -0.0070863662545590025
-0.011609743170359975 -0.006830111882745739 0.002962491227152972 -0.006110279371992931 -0.011665924123290837 0.003303119282239949 -0.005594586901374497 -0.00263124230706322
00000000: a107 d87a 3755 683f 3ab3 5b3e e7c2 72bf
00000010: 7fc3 cdce a14b 7abf 926c 17ce ec8a 523f
00000020: 3d03 5114 2ebd 73bf 764b d247 114f 95bf
00000030: 022c d54a c904 7abf 789c f028 1694 5fbf
00000040: 9fe6 e648 4acd 70bf 76e4 35ce 8d2b 523f
00000050: d14d 9f9b 9a39 7a3f b12a 719c f5b6 5dbf
00000060: ee71 ced9 4a66 553f 7fe5 3957 1016 8abf
00000070: fad3 9fd7 8f48 62bf c812 f9f4 9706 7dbf
00000080: 2c6e da59 d9c6 87bf 8270 a132 e4f9 7bbf
00000090: fa0c ee5d cb44 683f fe74 27a1 1707 79bf
000000a0: 8c7c b2d4 4de4 87bf 4520 58a9 240f 6b3f
000000b0: 0ba2 6a7c 59ea 76bf ce96 0375 1d8e 65bf

exp_avg_sq f8 [1, 24]
0.0025381923026257915 0.01425613315214171 0.005150393423482463 0.010662025172198048 0.0021110716362081187 0.012058881554224968 0.0016044687628543454 0.010720313709733342
0.00645951565835709 0.0022348486209012417 0.0009181266233409265 0.002700649319580668 0.002218137137337913 0.0019099317631217634 0.003380641702810383 0.004162040003317289
0.003383232872844602 0.003186805481155323 0.004210082392630139 0.010310627884102775 0.0029142654912808082 0.010269008542463735 0.0022230917198383113 0.010535173758564671
00000000: 5a98 c89d f9ca 643f ca38 3fcd 5132 8d3f
00000010: 13d7 0b35 9418 753f fdc6 63cb f8d5 853f
00000020: 9d86 62f4 3c4b 613f 42c0 36af 53b2 883f
00000030: b959 4a37 a149 5a3f f310 4a26 88f4 853f
00000040: e0a2 0208 4b75 7a3f 9900 a037 d14e 623f
00000050: 0729 11e9 cd15 4e3f c393 2d10 ac1f 663f
00000060: 5e27 d04e c52b 623f fee8 739d d54a 5f3f
00000070: 00b4 b231 b8b1 6b3f d7a8 2e1b 370c 713f
00000080: 2055 6551 27b7 6b3f bcb2 3f2a 371b 6a3f
00000090: 2e78 0963 973e 713f 8df0 810c bd1d 853f
000000a0: e3dd 425f a8df 673f 0f5c d1fe ea07 853f
000000b0: 8264 7247 2936 623f a475 0116 7793 853f

exp_avg f8 [1]
0.0011064003802500543
00000000: e1e2 c35c 9420 523f

exp_avg_sq f8 [1]
0.0009718580101131002
00000000: 1e53 552f 89d8 4f3f
