Control_FPL/lightning_logs/feature_comparison/total_points-saves-assists-goals_scored-goals_conceded/default/version_0/checkpoints/epoch=99-step=1299.ckpt (torch, 3607 bytes, 6 tensors)

model.fc1.weight f8 [1, 30]
000000 0d cf 37 13 81 a3 ab 3f 20 e7 84 48 cc 04 a5 3f
       0.05398181304545178 0.04105223069423247
000010 0b c5 23 3e 4c a0 a6 3f 15 01 44 ad 29 52 b4 3f
       0.044191725335517594 0.07937870483511163
000020 dc df a0 55 97 02 bf 3f 57 b5 dc dc df a2 d0 3f
       0.12113328781640526 0.2599410683495384
000030 f3 9a fd a5 29 ac 76 3f a9 1c f0 5f a0 1c 86 3f
       0.005535280884805915 0.01079678814677572
000040 43 9a 15 cf 92 c5 93 3f 5a f1 b1 4b f8 fb 75 bf
       0.019308370484760095 -0.005367250351920505
000050 b2 7a 06 79 b3 36 6e 3f 0c 6f 6f 27 f7 9d 90 bf
       0.0036881928755997046 -0.01622759035295389
000060 d3 e8 86 53 3c 6f 58 3f c3 5a 5a 16 24 c1 91 3f
       0.0014913643955041702 0.017338336815181387
000070 7b 56 c6 e4 97 8f 87 3f 21 f4 29 5d 2d 31 70 3f
       0.011504351300384066 0.003953149035280241
000080 46 32 df 70 57 65 57 bf 09 3c 82 b3 05 f0 a7 bf
       -0.001427970305928687 -0.046753099596678345
000090 95 d2 6e 6d 63 c6 98 3f b9 15 c4 7c 71 03 90 3f
       0.02419429164338512 0.015638135185346267
0000a0 3d 99 f5 8e 93 d3 94 3f 54 60 3b c0 27 13 8d 3f
       0.020338349915072874 0.014196692041352467
0000b0 3d 44 11 14 fa 32 98 bf 5c 3f 64 00 2b e4 b2 bf
       -0.02363196132165889 -0.07379406699714991
0000c0 e1 1a 08 e9 b3 bd 87 3f 97 a8 c6 bf 87 07 38 3f
       0.01159229807764234 0.000366659776569586
0000d0 5f 56 af 5c d4 a9 82 3f 9f e4 08 f8 27 60 89 3f
       0.009112986639517815 0.012390434510154256
0000e0 8d e8 c9 98 4d ba a7 3f 7e e0 ff d6 4d 5d bd 3f
       0.04634325494858258 0.11470495699893665

model.fc1.bias f8 [1]
000000 84 22 0d 0f 26 d2 64 bf
       -0.0025416129432510055

exp_avg f8 [1, 30]
000000 f7 70 d5 18 ac 5a 76 3f ac 3a 63 80 fb 16 70 3f
       0.005457565549786595 0.003928167751111527
000010 ed 2a 98 44 83 e7 45 bf 12 10 e4 a4 f4 03 7b 3f
       -0.0006684676129123636 0.006595569268260009
000020 16 49 7b 35 fb 71 75 3f 18 af 15 1a 23 a2 69 3f
       0.005235654148878296 0.0031290708145003225
000030 91 14 3a 7a fc 7c 2c bf 38 93 2f a2 f3 f7 42 bf
       -0.00021734792709452282 -0.0005788745514761834
000040 c7 0b 01 dc e9 a1 6d 3f 5c 23 9c 63 c8 93 4c bf
       0.0036172454420308783 -0.0008721092665108054
000050 0e 8d cc 29 0e 8f 30 bf 23 d3 a6 23 ea 41 47 bf
       -0.0002526673868478859 -0.0007097619302870211
000060 64 ef 9a c9 c5 de 61 bf 98 bb 33 98 c8 bf 74 3f
       -0.0021814215695864937 0.005065711567325069
000070 87 34 a2 47 d6 4f 38 3f db 25 2c 74 13 c9 80 3f
       0.0003709695953453902 0.008196022017290019
000080 da f9 6a c6 3a 23 81 bf 13 60 08 07 7b 88 71 3f
       -0.00836797636054325 0.0042805486450774475
000090 da df 2c 33 28 c2 7b 3f 60 d3 4a 5c 1c 21 8c bf
       0.006776959448693243 -0.013735028807198624
0000a0 4e 77 83 ec fc f1 6f bf 13 13 83 6d 0f bc 51 bf
       -0.0038995685500670457 -0.0010824347173620838
0000b0 16 c8 dc 8f 4d 62 76 3f ac 5b 42 79 4f b8 4c bf
       0.005464842773834652 -0.0008764637045882615
0000c0 51 d3 ee 23 3c 7c 74 bf 14 08 80 e2 97 b4 70 bf
       -0.005001292155544971 -0.004078477191798786
0000d0 1d 5d d1 83 45 a2 64 bf 64 9f be ba 4c 08 6d bf
       -0.0025187833512451256 -0.0035439966795429035
0000e0 2d 9a a9 52 48 6c 6d bf c1 d6 25 c0 5c a8 85 bf
       -0.0035916721874855923 -0.010575031865964648

exp_avg_sq f8 [1, 30]
000000 37 f6 5b 4d 87 28 82 3f ba 9c b5 27 f5 53 7c 3f
       0.008866364525142873 0.006916005742232995
000010 f4 e4 66 69 44 da 7c 3f ef 16 ee af 38 e5 54 3f
       0.007044093354516823 0.001275353773708184
000020 60 80 aa 0b ab 10 85 3f e1 15 af 66 8c 64 81 3f
       0.010285698216932981 0.008492562183060439
000030 60 d7 72 19 cf d3 7a 3f 51 55 dd dd 6b 1a 7e 3f
       0.006549653036179354 0.007349416116843103
000040 d5 7b 85 a7 a3 4e 81 3f 03 c2 e9 f6 d3 f7 76 3f
       0.008450773763511702 0.005607440935464061
000050 d3 da c4 76 ad 5d 7a 3f d8 92 3d 5b c1 15 83 3f
       0.006436994164963311 0.00931883868879295
000060 83 a6 f6 80 10 cb 60 3f 6e a5 ba 6a 13 ae 76 3f
       0.0020499536837704237 0.005537105414682981
000070 9e d4 c0 fa 9d 7c 58 3f 55 00 05 f5 04 19 5f 3f
       0.0014945547836877969 0.001898054924893718
000080 06 b0 17 2e 8a a0 70 3f d2 b4 54 43 73 62 67 3f
       0.004059352651420772 0.0028545619230927266
000090 5f 80 3f bf c0 51 6c 3f f5 56 44 b6 93 1d 67 3f
       0.0034569515791958295 0.0028217206000914438
0000a0 22 26 ef de bf 25 55 3f 49 52 cb 68 1b f2 66 3f
       0.0012907384623183156 0.00280099252118252
0000b0 31 9f 58 e9 ed 32 76 3f 6c b5 cd 99 ce 6f 60 3f
       0.005419663755254865 0.0020064387485293957
0000c0 b0 6e e0 0f 1f 64 6b 3f cb 2b 7f d6 bb 3e 5b 3f
       0.0033436400108380546 0.0016629061083104242
0000d0 f7 1c c7 35 4f fd 5e 3f d6 d3 bc d5 91 7e 78 3f
       0.0018914483581385347 0.005980081241252008
0000e0 c1 13 cb 17 ce 62 71 3f 53 bd e1 c5 ae 7e 70 3f
       0.004244618464046946 0.0040270640439382275

exp_avg f8 [1]
000000 e4 77 b8 62 82 70 68 bf
       -0.0029833361238749013

exp_avg_sq f8 [1]
000000 30 20 3d 49 4a 6b 4c 3f
       0.0008672821736377453
