Control_FPL/lightning_logs/feature_comparison/total_points-ict_index-clean_sheets-assists-goals_scored/default/version_0/checkpoints/epoch=99-step=1299.ckpt (torch, 3607 bytes, 6 tensors)

model.fc1.weight f8 [1, 30]
00000000: d608 9d49 a756 b13f ffcd b921 4339 ad3f
00000010: 212e 1346 135e b43f 1f43 ff47 484f b63f
00000020: 981a 116b 45d8 b33f 4ea3 cce9 7bce c73f
00000030: b642 b5be fe15 a23f da39 8c94 863f 9f3f
00000040: bedc a7fc bb5d 953f bc24 236d 59f8 993f
00000050: 6d22 5157 4e58 b83f 4b4f 4aed 7731 c73f
00000060: 9d80 b439 cef3 49bf 901f f0b2 43fa 95bf
00000070: 949a 51b6 1c44 99bf 9a63 b2f8 5d1c 71bf
00000080: d107 c45f a851 843f e4c2 2fa8 d5c2 90bf
00000090: 34fc c150 841f 97bf de8f 4f5d 75f5 74bf
000000a0: 84ec 396a a374 97bf 89a3 efd0 cf40 92bf
000000b0: 09d0 dc6c 11cb a1bf 3a5d c296 6243 b2bf
000000c0: 3d81 5cd4 cd5c 82bf 30da 329d b9ef 97bf
000000d0: ef03 751f 3d16 97bf 5078 840c 5a74 95bf
000000e0: 4564 f081 4466 acbf 3862 c60b 06e8 bebf
0.06772847697451154 0.05707750117008103 0.07956047497571507 0.08714725263349664 0.07751878608642426 0.18598889270767888 0.035324059276381645 0.030515768829951863
0.020865380569344387 0.025361439977846997 0.09509744292984985 0.18119715773047526 -0.0007920033416759679 -0.021462495609767596 -0.024673889758924775 -0.004177443576872353
0.00992137472394808 -0.016368235006612233 -0.022581164769231957 -0.0051168999243351426 -0.02290587745526952 -0.017825362327048153 -0.03475241140259306 -0.07134071522374522
-0.008966072123769759 -0.023375416011470473 -0.022545771641720277 -0.02095165921593206 -0.05546773992700386 -0.12072789943193463

model.fc1.bias f8 [1]
00000000: 14cf b584 5edd 71bf
-0.004361504757401286

exp_avg f8 [1, 30]
00000000: f64f 0c8f 55f3 82bf 0f6c fc01 4573 83bf
00000010: ef14 7e0c 58ee 373f a769 824f f9ec 66bf
00000020: 2176 c559 8f46 773f 5893 006d 690a 91bf
00000030: 6f0d 4071 cf23 90bf aa54 6e9b db41 8bbf
00000040: 538d b6f5 0123 68bf 9242 661f 5076 76bf
00000050: a41b cf1b 4678 57bf b02e ed5d a935 6abf
00000060: 3b8e e096 9534 83bf 33b6 3866 66ab 32bf
00000070: 9218 30e0 1f37 57bf de47 d7b0 b4ff 80bf
00000080: 7f1a b143 437f 773f cd36 ca57 6823 383f
00000090: 5334 bad5 b705 81bf 57db c3b6 615f 7ebf
000000a0: dab0 3981 3b75 58bf 4d5e 93c7 55c4 713f
000000b0: 96e1 e08e e6fd 883f 981f 850a 58dc 66bf
000000c0: 1cc4 169b 13d6 81bf 95af aa45 fdd3 7dbf
000000d0: 8172 663e fba5 77bf 9046 010d 3c72 76bf
000000e0: 69f6 193f b8cc 30bf cb60 442c 471f 7fbf
-0.009253185680371683 -0.009497202990635526 0.00036515855435255337 -0.0027985448214852995 0.005682525600005956 -0.01664128043934751 -0.01576160553669353 -0.01330920761192041
-0.0029463804509803153 -0.005483925799481997 -0.0014324841169910197 -0.0031994159648201723 -0.009377640406518775 -0.00028487443907718456 -0.0014169513021911368 -0.00830022015262338
0.0057366015926790795 0.0003683213942985264 -0.008311687669698175 -0.007415181822799286 -0.0014927941419058872 0.004337630344899046 0.012203026995948812 -0.002790615039120991
-0.008709099932135138 -0.007282246917991749 -0.005773526593114143 -0.00548003632873563 -0.0002563428707630157 -0.007598188418590899

exp_avg_sq f8 [1, 30]
00000000: 9afa 445c cf32 643f 07a2 9db2 39eb 6a3f
00000010: 1d0e 19fb 349d 623f a59b afc0 34a9 543f
00000020: b512 8f00 9661 603f 3ced 253e 60ed 8d3f
00000030: d5a2 d9c3 2915 643f 2fdd c299 68db 693f
00000040: 8209 6c2e 57e5 5a3f 9bde 59b9 10f0 5d3f
00000050: 0697 b2c3 3b7c 633f bbb2 ff2d 2be2 863f
00000060: a8a9 a5df 865b 603f 9c63 f9ad e37c 563f
00000070: e9ea 9818 9c36 633f 6ecb 66dd 8ed9 5e3f
00000080: defd f702 e10f 633f b862 e513 4df5 873f
00000090: f4f9 503f 1bf2 723f 9b95 6868 8382 603f
000000a0: f749 3e4a 5ffc 563f 60de 621d 84b8 613f
000000b0: 6db1 2156 eeef 683f e83c 8b56 bc21 6d3f
000000c0: 78b4 a2ac fa68 663f 5c43 5215 f5d1 753f
000000d0: 242d c3fb 767d 663f eb59 2e8f 6217 623f
000000e0: 9036 4baa c1d9 4e3f bf27 80dd 8b15 723f
0.002465634346804646 0.003285992327551893 0.0022722277433631214 0.0012610449946295146 0.001999657605184469 0.014612914940463122 0.002451497623770708 0.0031563799840018873
0.0016415931110605746 0.0018272555656987713 0.002378575065068558 0.01117357000472318 0.001996768403093447 0.0013725493844473973 0.0023453758956554116 0.0018829245724247506
0.0023269076116318862 0.01169834343879593 0.004625421938782005 0.0020153585967530147 0.0014029436651737928 0.0021631794325818604 0.0030440955170460333 0.003556125495698493
0.0027356048568294954 0.005327184063518366 0.002745373143715606 0.002208416460642617 0.00094148594197359 0.004415079449254066

exp_avg f8 [1]
00000000: a9b2 c56c c905 76bf
-0.005376612487776691

exp_avg_sq f8 [1]
00000000: 4922 6b67 d0a4 473f
0.000721551666026229
