Control_FPL/lightning_logs/feature_comparison/total_points-goals_conceded/default/version_0/checkpoints/epoch=99-step=1299.ckpt (torch, 3159 bytes, 6 tensors)

model.fc1.weight f8 [1, 12]
00000000: 72d4 e34c bcdf b43f 8cf7 aec8 8df9 aa3f
00000010: 7972 645c 9d52 b03f dade 1a6c 510b b73f
00000020: 0a7d 9eb1 ca36 bd3f 1558 3388 3ac5 c73f
00000030: 0ea5 2516 1883 8b3f 749a 69d6 26a9 763f
00000040: 148f c087 998d 7f3f 3045 9ae6 a6cd 953f
00000050: cf48 728e 25e0 a53f 907a 4970 45a9 b93f
0.08153893353649425 0.05268519472836805 0.06376060014413011 0.09001644982606241 0.11411730610278795 0.18570644045274834 0.013433635879396746 0.005532409390616711
0.007703399398483208 0.02129231245505031 0.042725728643874576 0.10023912421591263

model.fc1.bias f8 [1]
00000000: 97c5 071b 03cd 56bf
-0.0013916521385194164

exp_avg f8 [1, 12]
00000000: 50c6 df91 2481 75bf 55a6 be58 4a5d 36bf
00000010: c52c bd8f 1856 6f3f b6bc 832a 02ea 673f
00000020: 15e5 5e94 8a56 72bf 98a1 70b1 c104 6a3f
00000030: 5d16 d05e beb0 79bf 4bdb c0ed 63e6 5ebf
00000040: 4420 590d 90f8 6a3f f0de daec e7ae 543f
00000050: b43f f04d ec8c 483f 4629 f2f0 7f42 543f
-0.005250113345014976 -0.0003412539015195994 0.0038252334324276626 0.0029192011171442446 -0.004477063490349727 0.0031760962551922838 -0.006272071489552636 -0.001885984026569881
0.0032923520582564276 0.0012624039549517484 0.0007492212133701688 0.001236557905743911

exp_avg_sq f8 [1, 12]
00000000: 8a14 8793 42be 803f d2a5 3d88 bc02 9f3f
00000010: a0c1 ae72 a09a a33f 4f75 e08e cb5e a73f
00000020: a663 16f1 1e23 703f e227 d135 e854 783f
00000030: 72c8 d623 fb99 863f 30d5 ab81 28a8 803f
00000040: ce44 c514 7306 653f 5bbe 1910 b447 693f
00000050: e29f b278 3893 903f 839e afea 7be8 5d3f
0.008175392272173693 0.03028387624309465 0.038289083480211206 0.04564510459042969 0.003939743868067424 0.005940348693068006 0.011035882979602205 0.00813323636746563
0.002566551940767248 0.0030859486440062817 0.01618660198860756 0.0018254480480609798

exp_avg f8 [1]
00000000: 8ad2 279e 0c13 67bf
-0.0028167005959807744

exp_avg_sq f8 [1]
00000000: 782b a2cf 88f9 4d3f
0.0009147565863413106
