Control_FPL/lightning_logs/feature_comparison/total_points-clean_sheets-was_home-goals_scored-goals_conceded/default/version_0/checkpoints/epoch=99-step=1299.ckpt (torch, 3607 bytes, 6 tensors)

model.fc1.weight f8 [1, 30]
000000 14 f1 58 b1 d8 37 ab 3f f1 77 d8 55 5c 4f b0 3f
       0.05316044964681246 0.06371094795073852
000010 80 5e 63 89 7a d3 ad 3f d7 fa 81 8e 8a c2 b1 3f
       0.05825407912351199 0.06937471369927138
000020 92 da f6 79 ad eb b6 3f a0 51 bc 30 c9 02 c2 3f
       0.08953365543025374 0.1407100189177415
000030 f8 24 5a 1e 7a 7f 82 3f f2 fa 12 37 15 ca 78 bf
       0.009032205630563159 -0.00605209624444457
000040 ef 93 b5 54 a1 71 66 bf 31 23 bf 5b f3 81 82 3f
       -0.0027397299760871722 0.00903692363489625
000050 ff 8d 91 a1 48 51 a4 3f eb dc 8e 48 2c 50 b4 3f
       0.03968264553330058 0.07934834262310957
000060 78 9d d2 0b 48 84 75 3f 98 fc 4c e3 6f c8 62 bf
       0.005253106527710265 -0.0022928414640826615
000070 bc 29 51 89 ad 86 52 bf 66 c5 85 ee e1 51 90 3f
       -0.0011307425204615104 0.015937357123623562
000080 ce 26 e8 90 8c 9c 80 bf a8 95 22 49 04 48 6e bf
       -0.008111093685346484 -0.003696449633099081
000090 6b 22 22 95 a4 9e 96 3f ca cb 6e 22 d6 61 41 3f
       0.02208954963910729 0.0005304618433598027
0000a0 32 b6 83 f2 f4 9a 53 bf 66 40 37 d3 24 c1 72 3f
       -0.001196612554902454 0.004578727577111951
0000b0 e4 55 34 27 ac 89 6f bf 55 3c d9 23 5d cb 7b bf
       -0.0038498270383893075 -0.006785739734893677
0000c0 cf ff 40 99 7d 05 86 3f 6f 6b 3e e7 c5 ec 36 bf
       0.010752660026014297 -0.0003498061334938273
0000d0 56 75 9c af 40 43 6f 3f 53 75 8d a3 86 42 92 3f
       0.003816248264128556 0.017831901295143848
0000e0 34 97 a0 46 65 5c b0 3f a6 f6 81 6a 06 41 c0 3f
       0.0639098451070737 0.12698440743036093

model.fc1.bias f8 [1]
000000 d8 bb be 20 13 df 5e bf
       -0.0018842398448943778

exp_avg f8 [1, 30]
000000 f3 a1 14 02 d6 fb 78 3f d2 41 4a 78 b2 22 79 bf
       0.006099544495818498 -0.006136605403881794
000010 6b e5 b8 1c 42 14 6b 3f 03 08 09 42 c8 56 85 bf
       0.00330555832422579 -0.01041943027042081
000020 17 69 8d 26 cd 85 72 3f e9 f4 0f f1 4c 21 86 bf
       0.004522134179604251 -0.010805703264845383
000030 c7 34 42 f1 11 26 76 3f 83 e5 09 80 5e ee 78 bf
       0.005407400214733466 -0.006086701527800445
000040 0b 08 21 17 cc a2 5c bf d0 af 37 02 80 69 83 bf
       -0.001747798258762592 -0.009478569095300232
000050 48 e9 0b cf 8c 36 80 3f d0 84 00 c0 e2 41 50 3f
       0.007916545933302502 0.0009922708850427682
000060 4d 47 7f 90 fe 8b 64 bf c9 c8 66 b3 ae 0d 7c 3f
       -0.0025081607782135086 0.0068489860772606515
000070 83 38 ca 83 09 17 75 bf b4 32 12 12 09 4e 75 bf
       -0.0051489230796858436 -0.005201373512261288
000080 41 d2 ed 86 f4 e8 80 3f 02 a1 38 70 6c 0f 84 bf
       0.008256826751428583 -0.009795043158263631
000090 50 16 16 83 08 e4 5f bf 0b 0d d7 cb cf 9f 70 3f
       -0.0019464572072548543 0.004058658317663398
0000a0 b1 44 a9 e0 c7 c0 70 3f f2 8e 31 0c cd 96 52 3f
       0.004090100070770195 0.0011345865648530432
0000b0 dc d7 58 ed bb e4 50 bf 20 8e 8e 6e 78 1c 82 3f
       -0.0010310969568201244 0.008843365549018378
0000c0 70 80 5e 22 a5 bc 72 bf 1f 76 d3 e7 a2 41 73 3f
       -0.004574437194520539 0.004701267576107364
0000d0 b3 4c 23 55 34 c0 77 bf a0 a4 74 a0 c9 50 62 3f
       -0.005798534797764865 0.002235788156799659
0000e0 ad e9 fa c8 18 cd 6b bf 1c 03 cc 87 c6 bd 66 3f
       -0.0033936962207381156 0.00277603888969259

exp_avg_sq f8 [1, 30]
000000 1d 8b 17 20 f3 7f 73 3f 74 79 db 99 bb c0 82 3f
       0.004760694225725695 0.009156671173909038
000010 1a 74 82 4a 03 7a 75 3f d7 b3 c2 ad e2 4b 83 3f
       0.005243313651729609 0.009422083785773623
000020 67 9b 31 42 0e a2 7c 3f 30 47 c7 96 bb 5b 9a 3f
       0.00699048585656823 0.02574055774477485
000030 e4 a3 52 a5 84 3d 61 3f a3 a6 26 bf 1e fe 80 3f
       0.002104529451191871 0.008297195633378001
000040 58 0f e3 8f b9 72 68 3f 18 92 7e b5 68 43 62 3f
       0.0029843925723031343 0.0022294087502408126
000050 22 36 5a 73 49 85 69 3f 29 9a 0f fc 58 aa 7b 3f
       0.003115313966935999 0.006754253002304846
000060 70 cd 54 64 dc 4d 50 3f a0 71 f1 65 7e e1 4b 3f
       0.0009951259865602323 0.000850855558279618
000070 8d 4e 44 22 ef 09 5c 3f 48 9c e7 cb 99 3d 61 3f
       0.0017113528529692252 0.0021045688474603842
000080 69 61 a8 4d 41 84 64 3f 59 61 d8 44 2e ff 61 3f
       0.0025044703918519107 0.0021968749704336763
000090 43 4a 55 3c 4f e0 66 3f 07 a6 31 fe f1 5c 63 3f
       0.002792505986385836 0.0023636557030399827
0000a0 84 b5 60 8a 80 bc 53 3f a7 59 46 cc 00 b8 6c 3f
       0.001204610374326038 0.0035057082734042014
0000b0 c7 7f 73 d7 16 7f 5f 3f 6e be c7 2e c0 25 83 3f
       0.0019223902761993249 0.009349347522373121
0000c0 d5 c1 7d d2 0b f6 7b 3f 18 22 c1 16 6c dd 60 3f
       0.006826444798079885 0.00205870734319925
0000d0 1b 0d e3 c5 86 7c 80 3f a9 36 2a 0e 5a 8d 88 3f
       0.00805001536753607 0.011988357121733033
0000e0 b3 5a b3 e6 90 81 90 3f f9 72 42 24 af 87 84 3f
       0.016119255143019994 0.010024421972326435

exp_avg f8 [1]
000000 90 98 78 d1 9a 14 74 bf
       -0.004902462729239457

exp_avg_sq f8 [1]
000000 6f 9a 80 ec 23 33 55 3f
       0.001293931085464852
