Control_FPL/lightning_logs/feature_comparison/total_points-ict_index-clean_sheets-assists-was_home-goals_scored/default/version_0/checkpoints/epoch=99-step=1299.ckpt (torch, 3799 bytes, 6 tensors)

model.fc1.weight f8 [1, 36]
0.07049511811990006 0.04671022424782345 0.06940889454339112 0.05761700937291292 0.08426212957055855 0.18292210942446233 0.027955315741033507 0.03374462517809577
0.02206613814171033 0.029791186073667097 0.09226712655192193 0.20107655812362954 -0.0004367181783877725 -0.009895388742412201 -0.012759345505377998 0.005455331041867415
0.003262945327840409 -0.016931103870891893 -0.018566258836013916 -0.0043638774992573294 -0.019702793980843528 -0.009919682753744146 -0.041548455596979825 -0.08172358407626708
0.005968090669317767 -0.0036715035908139915 -0.006306199877701981 0.01788287747160557 -0.0012975990592445875 -0.00906929335532231 -0.008174560946612867 -0.022991061136194105
-0.017574094801469122 -0.009232651855438583 -0.05329959602301756 -0.1258200589601399
00000000: d045 dad2 f70b b23f 4003 110b 67ea a73f
00000010: 6589 1d04 c8c4 b13f a064 e605 fa7f ad3f
00000020: 3fff cbf2 3392 b53f 4dc1 d8de fd69 c73f
00000030: c4a9 6d7b 51a0 9c3f a584 1cbb f946 a13f
00000040: 22b0 ab76 8198 963f 10f1 94a7 9481 9e3f
00000050: 6051 0983 d19e b73f bf0d 916c e0bc c93f
00000060: 81d1 324b ea9e 3cbf e52a 3d98 0844 84bf
00000070: e2cb 4f5d 9221 8abf ca68 9e46 5458 763f
00000080: bc40 186f e4ba 6a3f f983 a425 6356 91bf
00000090: 1dfc 098a 0803 93bf cdf9 4972 dbdf 71bf
000000a0: 2473 261f f82c 94bf d6b9 1c48 c550 84bf
000000b0: 3e07 fad3 d645 a5bf 9d62 eb38 d6eb b4bf
000000c0: d494 e823 ff71 783f a9ae 307b b313 6ebf
000000d0: 82ce c9a3 87d4 79bf c57e 9897 e34f 923f
000000e0: ec28 7561 8642 55bf a31b dff2 eb92 82bf
000000f0: 8f1d 66ff d2bd 80bf 049e b8fe f78a 97bf
00000100: 8769 b789 f1fe 91bf 5c19 328e 91e8 82bf
00000110: 7b24 9eab 154a abbf 5f11 3527 df1a c0bf

model.fc1.bias f8 [1]
-0.004376401572523358
00000000: d9e7 0c5a fdec 71bf

exp_avg f8 [1, 36]
0.010770971651195085 0.009802754575324485 0.0005189077502207177 0.00780949337636442 0.004839315186977326 0.003774683625139479 0.01498935367486563 0.010364963561789599
0.005120128273277846 0.004923033282769869 0.00837436273961474 0.01055688102111354 0.0070527097830246025 0.006099569080056901 0.00436971589435948 -0.001992788216935328
-0.002678360272269672 0.0023591194167280694 0.001222609770536614 0.007144806802269011 -0.002496862935757633 -0.0004441247835554513 0.003478098685081897 0.005891113744384883
0.004820641385165675 -0.0083204206473066 0.0036617174805585774 -0.00406495644014921 0.0002750846985874461 -0.0028245533621838173 0.011333407539736164 0.008142170328562223
-0.004803031191634038 0.0018653617083155994 0.006798913573819037 0.008195330909833069
00000000: 2e7a e757 170f 863f e36d 7e72 7713 843f
00000010: 7e2d 8ee8 e900 413f 29a3 65ea d8fc 7f3f
00000020: 78df 68c7 63d2 733f 5787 20d7 15ec 6e3f
00000030: b7e4 92fe bcb2 8e3f 344c 2ddc 393a 853f
00000040: 40c7 c2f7 d7f8 743f ef56 25af 2c2a 743f
00000050: 285d bbf0 9326 813f cd18 de95 d89e 853f
00000060: da3d dc5d 4de3 7c3f dc20 7f9b dcfb 783f
00000070: 4ad0 bead fae5 713f 84e4 0607 2e53 60bf
00000080: 457b d7b8 edf0 65bf 1226 c097 6e53 633f
00000090: e400 bc3e ff07 543f e7ec d478 df43 7d3f
000000a0: 8f82 da14 4d74 64bf 53e5 b36b 2d1b 3dbf
000000b0: 4999 5903 1a7e 6c3f f708 e8cd 4721 783f
000000c0: ed3e 8511 cfbe 733f e49b 8df4 4b0a 81bf
000000d0: 4827 709a 2dff 6d3f 488d 856f 6aa6 70bf
000000e0: f65b b8c8 2707 323f 3ed6 1f8a 8423 67bf
000000f0: e11c e235 f835 873f f8b1 3c9a d7ac 803f
00000100: ec5b 3cde 57ac 73bf 4d45 13e2 e48f 5e3f
00000110: 9f87 2a77 2dd9 7b3f 0fab e6b1 b6c8 803f

exp_avg_sq f8 [1, 36]
0.0020726786053569205 0.003144184454048258 0.0029422141093213027 0.003949266721363494 0.006297754533447641 0.00655167510563519 0.0023553980000764903 0.003638960003822212
0.0027311210953115954 0.0024148461505626123 0.0032379174297387675 0.0028003978837831804 0.0020703235803895565 0.0020127404823017145 0.0059535798005661425 0.004550970430402295
0.0073075753876283385 0.003464177446435446 0.004953648831899813 0.0021527920455211617 0.0016301512867383395 0.002345223644525759 0.0027396054502769715 0.002310824294125725
0.0012636153851959125 0.0014542986676868853 0.0015401454495096835 0.001519967447054276 0.0012911598282674876 0.0009569102475714826 0.002221538126521609 0.005280436920627214
0.0025617980245386577 0.001757453085641141 0.0020180471203655116 0.003193538193294272
00000000: 7470 67da b8fa 603f af27 e32c d5c1 693f
00000010: 455f 132c 451a 683f 553f 9536 1b2d 703f
00000020: a679 269c accb 793f 32e7 00e5 edd5 7a3f
00000030: 63fb 23ac a04b 633f b5db a6c6 73cf 6d3f
00000040: 011a 2579 935f 663f b7ad baa7 4cc8 633f
00000050: e5d7 f8ae 6786 6a3f 1dce 732a dcf0 663f
00000060: 84b5 3c82 c8f5 603f 078f 7fd1 057d 603f
00000070: 31d6 99e8 c762 783f ec45 9ed2 09a4 723f
00000080: cbc0 d854 8cee 7d3f e71f e11a e860 6c3f
00000090: 4a7c a9fb 464a 743f 8b7e c76d bba2 613f
000000a0: 4861 b39d 59b5 5a3f 5f85 5c5b 4a36 633f
000000b0: 1923 037a 5e71 663f 9c6e a458 26ee 623f
000000c0: c0cf 43b0 fcb3 543f 4360 d84d c5d3 573f
000000d0: b4f0 8c95 d63b 593f b023 789e 34e7 583f
000000e0: d8d4 1f4f 8427 553f 81af f81b 255b 4f3f
000000f0: 2310 3533 e732 623f 217a 1f7e f0a0 753f
00000100: 8bcd 7fd7 7afc 643f 49ba bbe1 4acb 5c3f
00000110: 71bc 47cc 2688 603f 10c3 28c3 5529 6a3f

exp_avg f8 [1]
0.007595955940011887
00000000: 3de0 81e5 ef1c 7f3f

exp_avg_sq f8 [1]
0.0008830593888944888
00000000: e799 0d99 a3ef 4c3f
