Control_FPL/lightning_logs/feature_comparison/total_points-clean_sheets-saves-was_home-goals_conceded/default/version_0/checkpoints/epoch=99-step=1299.ckpt (torch, 3607 bytes, 6 tensors)

model.fc1.weight f8 [1, 30]
00000000: 0c48 ee0b a969 b43f ef1f ea7f 36e9 aa3f
00000010: 8712 745f 042f b23f 8ebd b30b 338d b33f
00000020: 29fc 83ad 5c34 b23f e1e1 2d6a 3370 c33f
00000030: ad0c 21c4 63c3 693f b6d1 99bc 9d8f 85bf
00000040: a919 31f0 ea9a 8abf 310f 4bad cf13 883f
00000050: 1109 f45f e62e a73f 9dab e3c1 8ed9 b13f
00000060: ff35 7106 927a 74bf 7972 bce1 424a 8b3f
00000070: 29e8 c60a a507 963f db75 b6d3 726c 81bf
00000080: 83c0 2c13 a03f 793f 2764 0575 b7fb 67bf
00000090: a243 7354 b37e 743f 3ef1 a143 1f25 72bf
000000a0: 3189 535d 1af9 7abf e744 72f0 520f 913f
000000b0: 9be7 ec95 40b3 7dbf 2045 398b 6f00 88bf
000000c0: 2d81 64b7 1b81 8b3f e46b 0edd f615 71bf
000000d0: 6b51 f413 0b92 24bf 1d64 6293 c30e 8c3f
000000e0: 105a 71d0 1dd8 ae3f 2719 d715 cea2 bf3f
0.07973724881438232 0.05256052314240366 0.07102992372899496 0.07637328181930611 0.07111148105831035 0.15186159786732303 0.0031449268872463993 -0.010527832334653247
-0.012990794615814165 0.011756536937702929 0.0452796928530167 0.06972591622949982 -0.004999704752731925 0.013325235856933336 0.021513537199759156 -0.008507630430183368
0.006164193432411594 -0.002927645029711562 0.005003643519743502 -0.004429933667889961 -0.006585219370409499 0.016660018850022686 -0.007251026427917663 -0.01171958106638954
0.013429848226735952 -0.004171337423850983 -0.0001569403193363393 0.013700035033524622 0.06024258775203262 0.12357795747002297

model.fc1.bias f8 [1]
00000000: 60ec bf52 b954 75bf
-0.005207752150449968

exp_avg f8 [1, 30]
00000000: 0760 16db 5c60 6a3f bec8 8dc3 6eb4 713f
00000010: d534 c69a 20e1 59bf fb78 201d 609f 783f
00000020: 797b a876 717f 56bf 2f35 55a9 8fb7 5a3f
00000030: ede4 337f 6c06 7bbf 76ef bf64 de09 813f
00000040: 291a 473c d649 563f ebea f541 03d0 5ebf
00000050: 8fe8 a56b 59e0 833f bece a6f6 8b38 713f
00000060: aab7 ebe6 9dae 71bf 3b07 3159 8961 6bbf
00000070: 2c1d e38a 7b76 49bf 3dab a53c f98e 713f
00000080: aec3 a59c 8712 013f e119 bdfd 8c4a 713f
00000090: 4b2c 35f7 54a3 773f 07b5 11cf 31a5 433f
000000a0: dfac a2cd b25d 4d3f cead bf4e efeb 68bf
000000b0: d2cb 4d4c bec4 65bf afd9 2562 2b60 7a3f
000000c0: 3ddd d2ca 78f6 653f c3b6 e5cb c470 813f
000000d0: a9f1 743b e693 823f 73ee 4b9e 5f31 793f
000000e0: 22f4 3ab2 5617 643f 33ef 0754 797a 533f
0.0032197774496118855 0.004322464629568921 -0.0015795534519356576 0.00601136726802864 -0.001373158268172607 0.0016306784576330493 -0.0065979231032937515 0.008319604348791403
0.001360377516094533 -0.0018806487858841713 0.00970525607839459 0.004204317791323296 -0.004316918186971034 -0.003342407473184842 -0.0007770636782646104 0.004286740857746105
3.256298403442964e-05 0.004221487757439552 0.005770999810304887 0.0005995267112105803 0.0008961794913110685 -0.003042189977340937 -0.0026572911032700453 0.006439370600097068
0.002681003496572436 0.008515870544865028 0.009071158112981719 0.006150601872601069 0.0024525349889175244 0.001188868031134893

exp_avg_sq f8 [1, 30]
00000000: c4de 51d1 53eb 5b3f 8aeb 07f0 2b7a 633f
00000010: e04f 6f8b 1152 853f 3d49 00ad be7c 613f
00000020: 4fe4 b03c 2feb 613f 368f dfce fcbb 5e3f
00000030: 35b0 24cf 6118 623f 7265 7587 da73 623f
00000040: ee90 b8f0 7508 833f eada f802 d824 613f
00000050: 238f d7cb 24fb 653f e78f 3a9f a925 5f3f
00000060: 88fb e754 e1e3 593f 5979 dc5d 7829 613f
00000070: 6812 3a8e af18 613f 6452 847f 4ff8 5d3f
00000080: b81a f4ca cdbd 693f d657 a0c4 e6af 6f3f
00000090: 5cbb 46c4 e3dc 583f 8e48 d69f 8516 553f
000000a0: a770 66c0 fd70 643f 7332 c237 c2d0 613f
000000b0: 18b7 c1eb f1aa 583f e148 07eb 7a1b 623f
000000c0: 0483 8691 e17f 763f 92f0 1097 5bd7 733f
000000d0: e676 1758 da25 6c3f 1acf e306 0e70 523f
000000e0: a2b7 8254 59e6 563f 0aaa d7c3 3beb 543f
0.0017040556461135762 0.0023775919109971276 0.010410439555847917 0.0021346782814443397 0.0021873400305847733 0.0018758744076814 0.002208891900542321 0.0022525089404267723
0.00929348126289439 0.00209276380317235 0.0026832312275803113 0.001901069303962716 0.0015802097801722332 0.0020949698363345423 0.0020869664020344743 0.001829221377254297
0.0031422633543372845 0.0038680560292147876 0.001517507961675788 0.001287107937376439 0.0024952846608368886 0.002174739200262282 0.0015056002148656263 0.002210369181036773
0.005493050696174565 0.004844053052746615 0.0034360184224472177 0.001125348756940653 0.0013976929058503247 0.0012767871515914097

exp_avg f8 [1]
00000000: 0444 a7ad 5f30 5bbf
-0.0016594824179387855

exp_avg_sq f8 [1]
00000000: 9177 5f2e fe58 533f
0.0011808855283485834
